results/Jumper/Jumper/checkpoint.pt (torch, 866599 bytes, 45 tensors)

network_body._body_endoder.seq_layers.0.weight f4 [128, 15]
000000 4e 17 81 3d 80 75 5e 3d 30 61 89 be e8 a7 0e 3e
       0.06303273 0.054311275 -0.2683196 0.13931239
000010 0a 56 37 3d 8a d3 ab be 23 0b 36 be 9c a6 a2 be
       0.044759788 -0.3355983 -0.17777686 -0.31767738
000020 44 fd bb 3d b7 00 48 be df d4 3d 3e 8d 11 9e be
       0.09179166 -0.19531523 0.18538235 -0.30872765
000030 6c b5 d2 3e 95 80 dc 3d 87 25 5c 3d 30 32 89 3e
       0.4115404 0.107667126 0.053746726 0.26796103
000040 6e ba 6d be 28 f8 a1 be 77 13 f2 bd c8 e4 ea 3e
       -0.23215649 -0.3163464 -0.11820119 0.4587767
000050 d2 3e 6d 3d fe d0 80 3e 9d e1 a7 3d b7 46 08 be
       0.05792124 0.25159448 0.08197329 -0.13308226
000060 9c 05 f0 3e 47 13 b6 3e b8 55 c1 bd 68 cd 82 bd
       0.4687928 0.35561582 -0.09440178 -0.063868344
000070 a8 95 0b bf 8e 72 f7 3d db fc f4 3d d7 64 48 bd
       -0.5452523 0.120823964 0.11962291 -0.048924293
000080 c5 99 1f be 33 38 32 be 6e 24 5c bd da 62 29 be
       -0.15586002 -0.17404251 -0.05374568 -0.16541615
000090 d7 52 2c 3f b3 15 85 bb ad 12 25 3e 64 d1 95 bd
       0.67313904 -0.0040614246 0.16120405 -0.07315329
0000a0 49 f1 1d be b5 13 d7 be a2 af 12 3f ae c1 5e be
       -0.15424074 -0.42007223 0.57299244 -0.2175357
0000b0 5c 10 8a bd db 9a 29 3d 79 30 b1 3e 5e 77 9a be
       -0.067414016 0.041407447 0.34607294 -0.30169195
0000c0 a0 d1 58 3c 79 31 14 be ab 82 9e 3e dd a2 18 be
       0.013233572 -0.14471997 0.30959067 -0.14905877
0000d0 c4 02 2e 3e 13 23 aa 3c 0d f9 e0 3d c3 5d 88 3e
       0.16993243 0.020768678 0.10985003 0.26634035
0000e0 1c 88 40 3e b5 c8 03 3f cd 49 39 3d e8 67 a0 be
       0.18801922 0.5147813 0.045236398 -0.31329274
0000f0 15 df 7f be 0a 73 e4 be 43 7a 61 3d 98 cf 8b be
       -0.24987443 -0.44619018 0.05504824 -0.2730682
000100 69 9f 44 3e 49 ac dd 3d 66 93 5d 3e 45 92 bb 3e
       0.19201435 0.108238764 0.2163826 0.36635032
000110 71 33 05 bf d3 d5 65 be b0 93 11 be 6c da 7c 3d
       -0.5203162 -0.22444849 -0.14216495 0.06173174
000120 78 02 1b be c4 02 0f 3f aa eb d8 3e 0f 0b 65 bd
       -0.1513766 0.55863595 0.42367297 -0.05591875
000130 33 5a 88 be d0 fe b8 3d 80 33 0c be 24 d1 fa 3d
       -0.26631317 0.090329766 -0.1369152 0.12246922
000140 c9 79 d3 bc 6a e4 8a bc 4f 4b 95 be 87 bb a3 bc
       -0.025814908 -0.01695462 -0.29159018 -0.019986881
000150 f9 00 b5 3d 22 f0 53 3e 58 33 16 3e 44 12 39 3d
       0.08838076 0.20697072 0.14668024 0.045183435
000160 1b d9 07 3c ab f5 74 be 5e 28 86 3e e6 81 c8 3e
       0.008291508 -0.2392184 0.26202673 0.39161605
000170 b3 01 d9 bd 04 8b 3d 3f 47 ac d7 3d 98 3b 72 3d
       -0.10596027 0.74040246 0.10530906 0.059138864
000180 8e 93 3e 3e 89 35 81 bc b8 c9 be 3e 4b 68 1c be
       0.18610975 -0.015772598 0.37263274 -0.1527416
000190 71 89 98 bd 41 aa 6d 3d e6 4e 65 3e d3 98 49 be
       -0.0744809 0.058023695 0.22393379 -0.19687204
0001a0 fb 47 78 bd c6 91 94 be 27 07 02 3e 56 e9 a2 be
       -0.06061552 -0.29017466 0.12698041 -0.31818646
0001b0 7d b8 0f 3d 77 36 39 3c 24 8a 98 be 9c da e3 3b
       0.03508805 0.011304489 -0.29792893 0.0069535505
0001c0 ae f2 54 3c 49 f4 5e 3d ac fc 99 3e 57 62 69 be
       0.0129973125 0.054432187 0.30075586 -0.2279142
0001d0 7b ee a2 be 1e c7 5c be bd 06 11 be c3 53 97 be
       -0.3182257 -0.21560332 -0.14162727 -0.29556093
0001e0 03 86 f8 bd 4b c6 98 be 4f bd 28 3e 4b 52 09 3d
       -0.12134936 -0.29838786 0.16478465 0.033525746
0001f0 ca d4 51 be 04 da 23 bd ca d3 3a bd bb 65 da be
       -0.20491329 -0.040002838 -0.045612134 -0.4265574
000200 9a 81 35 be a4 69 08 be 73 e0 64 3e 6a 22 c0 be
       -0.1772522 -0.13321549 0.22351246 -0.37526256
000210 ff 96 ff 3c b2 99 8d 3e 8b cc ab 3e 9e e2 0a 3f
       0.03119993 0.27656323 0.3355449 0.5425204
000220 5e fa ef bd 59 c8 3a be c4 b4 a8 3e 6e e7 c4 3e
       -0.117176756 -0.18240489 0.32950413 0.38457817
000230 88 0d 80 bd 4c 9c 89 be 51 fe a3 bd 86 97 92 3e
       -0.06252581 -0.26877058 -0.080074914 0.28631228
000240 f7 a2 21 3e af 53 04 3f 53 fd b5 3e e3 75 9b be
       0.15784822 0.5169019 0.35544834 -0.30363378
000250 7b 00 b7 3e a3 24 cd be 06 91 7d 3e 5a 6a ad 3e
       0.35742554 -0.40067014 0.24762353 0.33870202
000260 51 a9 34 bf f8 d7 0c 3e 6d a3 ee 3e 68 46 2c be
       -0.70570856 0.1375426 0.4660906 -0.16823733
000270 b4 36 03 3f 22 c0 71 3d 53 07 85 3e 25 47 84 bd
       0.51255345 0.059021123 0.2598215 -0.06458882
000280 6c 9e 60 bd c4 6d b4 3e 98 31 3e 3f d1 4a 4e be
       -0.054838583 0.35239995 0.74294424 -0.20145728
000290 d7 1f b3 be 0d 7c a8 be db 8e ba be 23 13 19 3f
       -0.3498523 -0.32907143 -0.36437115 0.59794825
0002a0 1b 24 8e bd ca 3f 4f be 38 6f 07 3e 1d 00 91 be
       -0.0694048 -0.20239177 0.1322602 -0.283204
0002b0 36 2a 0c bf 8b 9d 69 3d cd 73 47 be f5 96 1a be
       -0.5475191 0.05703501 -0.19477768 -0.15096648
0002c0 ce 48 f2 bc 2c 77 0b be 77 94 ac 3e d8 bb 7f 3e
       -0.029575732 -0.13619679 0.3370702 0.24974
0002d0 db d8 11 3f 0c 28 75 be 8a 3b 05 3c 7e 1d d2 3d
       0.5697152 -0.23941058 0.008131871 0.102595314
0002e0 4d e4 2b bd 03 8f 6c 3d 6c 0c 17 bd c0 67 a8 3d
       -0.04196577 0.057753574 -0.03687708 0.08222914
0002f0 f4 0b 3c 3e 60 f3 9c 3e 4f 6e c9 3d 22 bd bc 3e
       0.18363935 0.3065443 0.09835493 0.36863047
000300 f1 c5 f7 be cf 57 92 be 70 a5 2c 3e 63 53 93 bd
       -0.48393205 -0.28582618 0.16859984 -0.07193639
000310 35 da ef bd 29 58 e4 3c cc 49 8e 3e 3c 4f ff bd
       -0.117115416 0.02787407 0.27790678 -0.12466285
000320 d0 76 b5 be 58 93 30 bf 6c 9a 05 be 0c 6c 39 3b
       -0.3544221 -0.6897483 -0.13047189 0.002829316
000330 44 cc aa 3e 2f b9 77 be ca 5c 9e be 83 86 cc bd
       0.33358967 -0.24191736 -0.30930167 -0.099865936
000340 80 11 1c 3e b3 65 76 be a5 48 0e 3f 13 84 27 bd
       0.1524105 -0.24062233 0.55579597 -0.04089744
000350 83 34 dc 3c 1b 13 a1 bd 87 0d 96 3c 8b e7 b5 3e
       0.026880508 -0.07864972 0.018316997 0.35528216
000360 97 1b 8e 3e c7 dd 4a be 37 2a b2 3d 3c a5 89 bc
       0.27755424 -0.19811164 0.08699458 -0.016802423
000370 ec 2d bd 3d 07 dd 54 3d 1c 86 96 3d 9d 61 3f 3e
       0.092372745 0.0519686 0.07349798 0.1868958
000380 63 59 93 3e 52 ee 65 be 64 aa 18 3e 3b db af bd
       0.28779134 -0.22454193 0.14908749 -0.08586737
000390 b0 61 95 3b 0b 6b 32 bc 2a b4 57 be 78 52 86 be
       0.0045587644 -0.010889779 -0.21064821 -0.26234794
0003a0 3a 0c 0d be c9 68 30 be f7 fb 96 bd f4 2c 69 be
       -0.13774195 -0.17227472 -0.07372277 -0.22771055
0003b0 8e 3e 62 be fc 29 c4 3e 1a 9a 86 3c c4 7c 64 3e
       -0.22094175 0.38313282 0.016430903 0.2231322
0003c0 ab 49 9c be 2a 21 2d 3d 96 a0 07 bd cc 5d 8c bc
       -0.30524954 0.042267956 -0.03311213 -0.01713457
0003d0 10 81 6a be 10 3c b4 3e 84 ac 90 3d eb 65 b1 3e
       -0.22900796 0.35202074 0.07064155 0.3464807
0003e0 46 e3 1c be bb ba 6b be b7 c1 22 3e d6 16 8c be
       -0.15321073 -0.23020451 0.15894209 -0.27361172
0003f0 a1 85 df 3e c0 4c 82 3e d8 4a f7 bc 27 b1 a5 be
       0.43656638 0.2544918 -0.030187055 -0.3236172

network_body._body_endoder.seq_layers.0.bias f4 [128]
000000 ca 55 4b bd 18 6d 27 bd a8 f9 a4 bb 6d ed a8 bc
       -0.04964236 -0.040875524 -0.005034644 -0.020621026
000010 bc 70 c9 3c c0 cb b4 3d bf e9 87 3b fc 4c 87 3d
       0.024589889 0.08827925 0.0041477378 0.066064805
000020 27 e0 d1 3c 15 26 c5 3c 61 e2 f0 3c c0 fe 4e 3c
       0.02561958 0.02406601 0.02940482 0.012633979
000030 4e 0d 45 bc 00 75 0b 3d 4d 1c df bc 9b ba 1e 3d
       -0.012027098 0.034047127 -0.027235175 0.03875218
000040 ce 55 93 bd 7d eb bf 3c 5d c9 be 3c e3 7e 5e bb
       -0.071941 0.02342772 0.023289377 -0.0033950142
000050 89 6e 95 3c 9c a8 1d 3b cc a7 50 3d 44 8b 00 bd
       0.018241184 0.0024056798 0.050941274 -0.031382814
000060 90 90 1d 3d 6b 20 1b bd 6a da 75 bc 07 7d 91 3c
       0.038467944 -0.037872713 -0.015005687 0.017759813
000070 a0 8c ca bd 91 ee cc 3d ae 94 6a 3d c7 77 c5 bc
       -0.09890103 0.100064404 0.0572707 -0.024104966
000080 da 3e 59 bd 0e d5 9f bd 51 8e 91 bd 22 f1 58 3d
       -0.053038456 -0.07804309 -0.07107223 0.052964337
000090 23 78 9d bd 74 d1 5d 3c 7c e5 83 3b f9 84 90 3c
       -0.0768893 0.013538707 0.0040251594 0.017641531
0000a0 85 c6 68 bb 5c cb f3 bc d8 2a 94 3d a9 06 4f 3c
       -0.0035518717 -0.029760055 0.07234734 0.012635865
0000b0 5e 38 c6 3b 22 a3 59 3d 14 08 69 b9 48 68 55 bd
       0.0060492 0.05313409 -0.00022223621 -0.052101403
0000c0 4b 8a 4a 3d a2 76 91 3c 8c 4b 9a 3c c7 4b 3d 3c
       0.049448293 0.017756764 0.018834852 0.011553711
0000d0 b3 03 d7 3c 70 1c 53 3d 08 5e 80 bd d9 0f 02 3e
       0.026246881 0.051540792 -0.06267935 0.12701358
0000e0 d8 fb ac 3d 8d 96 8c 3c e7 68 dc 3c 4a 12 6a 3c
       0.08446473 0.017161632 0.02690549 0.014286587
0000f0 8c dd de 3d d1 98 b7 3d 98 f6 35 3d aa e8 17 3d
       0.108821005 0.08964694 0.044424623 0.03708712
000100 2b 0e 38 bd e8 d8 6e 3d b7 e1 00 3d 69 d5 30 3c
       -0.044935387 0.058312327 0.03146526 0.010793068
000110 76 ce f4 3c 45 74 38 3d 00 77 50 3c 8b f7 8e bc
       0.029883604 0.04503276 0.012723684 -0.017452022
000120 21 12 ba 3b d5 85 b7 bc 5e aa cf 3c 12 37 3d bd
       0.0056784307 -0.022402683 0.025349792 -0.046195097
000130 be 8c a6 3c 3c 19 5f bc 68 03 25 3d 0f 87 46 3c
       0.020330783 -0.013616856 0.04028645 0.012117161
000140 16 c6 2a 3d 2e 51 87 3c a7 4e 6b 3d 9c 58 98 3c
       0.041692816 0.016518202 0.057448056 0.01859694
000150 88 7a d9 bd 32 ec c1 3c 12 81 8f 3d bc e1 28 bd
       -0.10619074 0.023672197 0.0700704 -0.041230902
000160 cf 8b 5d 3d 1d 91 2c 3c 8e 59 a2 3c f6 50 2f 3d
       0.05408841 0.010532645 0.019818094 0.04280182
000170 7c 5f 92 3b 95 43 35 bc 83 a6 63 bd 02 e1 23 3c
       0.004466949 -0.011063476 -0.05557872 0.0100023765
000180 d8 b2 3b 3c d7 e3 37 bc e7 cc f1 3c 0d d3 85 bd
       0.011456214 -0.011223755 0.02951665 -0.06534395
000190 7c d1 e2 3c 84 59 a2 bd 9a 34 91 bc 52 2d 2c 3b
       0.02768778 -0.0792723 -0.017725278 0.002627213
0001a0 e3 7e 85 bb 41 47 a6 3c cc 04 2f b9 ff e6 60 bc
       -0.004073964 0.020297648 -0.00016691088 -0.013726949
0001b0 85 93 54 bd 6a 89 da bc 7f d5 cc bd e5 9d 99 3c
       -0.051898498 -0.026676852 -0.10001659 0.018752048
0001c0 26 16 07 3e 8d 81 9a 3d 24 72 e4 3c 8c f1 e3 bc
       0.13192043 0.07544241 0.027886458 -0.02782514
0001d0 af 72 53 bd c5 c6 f9 bc 97 94 43 bd 3f 2f 18 3d
       -0.051623043 -0.030490289 -0.04774913 0.037154432
0001e0 d4 14 24 3c 54 a2 4d 3d af 95 98 bc 8f b6 1b 3c
       0.010014731 0.050203636 -0.018626062 0.009503975
0001f0 ca 32 53 3c 5c cf ae 3c 6e 17 88 3b 88 d0 76 bc
       0.012890527 0.021339111 0.0041531837 -0.015064366

network_body._body_endoder.seq_layers.2.weight f4 [128, 128]
000000 2b fd 2b be ba 2e a2 3d ff d1 8e bd a6 5c 67 be
       -0.16795795 0.07919069 -0.06973647 -0.22593936
000010 7b 61 7d 3e c6 1e 2d bd 93 98 88 3d ef ca 48 be
       0.24744217 -0.042265676 0.06669726 -0.19608663
000020 ec f1 30 bc ad 98 81 bd f4 e0 37 be 8e c7 3b 3e
       -0.010799866 -0.06327949 -0.17956907 0.18337843
000030 2f f8 43 3e 8b 91 a6 bd d7 6b 95 bc e9 51 b4 3d
       0.19137643 -0.08133229 -0.018239899 0.088046856
000040 69 3e 24 bd ee 15 af 3c a9 87 8d 3d 6e d2 0b bd
       -0.04009858 0.021372762 0.06910641 -0.03413623
000050 99 29 54 be 9e 2d 60 3e b7 e2 88 be 26 e9 d1 bc
       -0.20718993 0.21892402 -0.2673547 -0.02562387
000060 25 d3 a7 3e a6 3e 91 3d cc d0 69 3d 25 77 e6 bd
       0.32778278 0.07092027 0.05708389 -0.11253194
000070 42 cb ae 3d 23 de 1e be 2f 69 d5 3d 05 55 e7 3b
       0.08534862 -0.15514426 0.10420453 0.0070596957
000080 2a 65 dd 3b e5 43 e0 3b 5b fd eb 3d c9 27 04 be
       0.0067564445 0.006844031 0.11522933 -0.12905802
000090 5a 2f ba 3d 89 bc 72 bd 21 9d a4 bc 7e fd 09 be
       0.09091063 -0.059261832 -0.020094456 -0.13475606
0000a0 4e b3 04 bc 35 b5 9e 3d 5f c8 dd bc 29 d4 ba bc
       -0.00809939 0.07749406 -0.027073083 -0.022806244
0000b0 48 44 f3 3d c7 9b bd bd 46 ef 60 3d 42 e7 06 3d
       0.11878258 -0.09258228 0.05491569 0.03293539
0000c0 49 f9 60 3d 0f fa 94 bd ea 6a d8 bd 46 00 21 be
       0.054925237 -0.072742574 -0.10567267 -0.1572276
0000d0 4e 33 30 3e e2 00 a9 3c 9a 20 07 bd ed cf 63 bc
       0.17207071 0.020630304 -0.032990076 -0.013904554
0000e0 bb cf cd bd 2f 70 48 be c3 f6 6d bd b5 e1 0e 3d
       -0.10049387 -0.19574045 -0.05809666 0.03488322
0000f0 b9 1f 1b bc d5 86 b8 3c e7 34 82 bd 95 93 0f 3e
       -0.0094680125 0.02252523 -0.063577466 0.14021142
000100 25 1a 47 3d ca 47 6d 3c 74 a3 2e 3c 2e 80 4d 3c
       0.048608918 0.014482448 0.010659087 0.012542767
000110 42 e8 52 be 4f 5c 0f bd 66 d3 69 3d 65 91 5d bd
       -0.20596412 -0.03500014 0.05708637 -0.054093737
000120 c1 7f 56 be 03 77 cb 3d 60 40 fd 3b 09 63 f9 3d
       -0.20947172 0.09934809 0.0077286214 0.121770926
000130 0a 25 6e 3c fe 48 24 3e 92 19 15 3e d5 67 16 bd
       0.014535198 0.1604347 0.14560536 -0.036720116
000140 c6 65 00 bc d8 c5 99 bd ae b7 42 bd ce 92 9f 3e
       -0.007836765 -0.07508439 -0.04753845 0.3116669
000150 74 90 23 3d 59 dc 29 3d dc a7 18 3e 71 8d 59 3e
       0.039932683 0.041469906 0.14907783 0.21245362
000160 8d fa 23 3e 70 0a 3e 3e dc 84 c1 bb 2b 23 e5 bd
       0.16013546 0.18558669 -0.0059057306 -0.111883484
000170 e7 8e 5a bd 06 12 9c 3c 03 92 2a 3e be 80 a8 bd
       -0.05335894 0.019051563 0.16657262 -0.082276806
000180 88 c6 b9 3d 9e bf df 3d e2 e5 51 3e c5 54 97 3d
       0.0907107 0.1092522 0.2049785 0.073892154
000190 97 12 5d 3c 0d 1e 5d 3e f6 7d 0a 3d d6 d4 36 bd
       0.013493202 0.21593495 0.033811532 -0.04463657
0001a0 ea 58 57 3d ee 0e 4a 3d 0c a9 8e bd ad 6a 96 3d
       0.05257503 0.049330644 -0.06965837 0.073445655
0001b0 a1 d2 25 bd 83 a0 0d 3e f9 a2 ad 3d cd 87 68 ba
       -0.040484075 0.13830762 0.0847835 -0.00088703335
0001c0 40 51 25 bd f1 a4 b7 be ce 79 ba bd 90 30 67 bc
       -0.04036069 -0.35868028 -0.09105264 -0.014110699
0001d0 d8 56 a6 3d 9e 65 b1 3d 4c 57 95 bd e3 9e ca 3d
       0.08122033 0.0866196 -0.07292041 0.098935865
0001e0 3c 54 e3 3d 97 d2 ed bc b9 04 9f 3d e9 aa 22 3e
       0.11100051 -0.029031081 0.07764573 0.1588551
0001f0 57 98 3a be 60 b1 a9 3d cb 61 b7 bc ff ff c8 bc
       -0.18222176 0.08285785 -0.022385499 -0.024536131
000200 c5 4f e7 bb bf 43 5b be a6 21 cf bd 8f 4b 0a 3e
       -0.00705907 -0.21412562 -0.1011384 0.13505386
000210 b2 f5 4e bc 5c 70 b9 bd 6e a1 a3 bd 28 42 df 3d
       -0.0126318205 -0.09054634 -0.07989775 0.1090129
000220 f0 28 a5 3d 92 41 93 3c d0 6d 7a 3d 1c d2 86 3e
       0.08064449 0.017975602 0.06113988 0.26332176
000230 ed cc d0 bd b5 54 02 3e b7 c1 05 be fa a9 85 bd
       -0.101953365 0.12727626 -0.13062178 -0.06526561
000240 46 fe 8f be 2e 20 ac bc da 6b 78 3b 7d 58 44 bd
       -0.28123683 -0.021011438 0.0037906081 -0.04793595
000250 65 db 8f bd 4d fa 3d 3d ed c7 16 3e cf 30 09 3d
       -0.07024268 0.046381284 0.14724703 0.033493813
000260 6c dc 41 be 4f 6c ae 3d b7 06 95 3c cd 49 ed 3d
       -0.1893174 0.08516752 0.018191678 0.11586342
000270 79 f8 09 3e c8 26 95 3d 06 db b4 bc 46 34 a6 3c
       0.13473691 0.072827876 -0.022077095 0.020288598
000280 94 8d 8f be ab 23 19 3d a6 10 7e 3e 14 f1 9c bd
       -0.28037703 0.03738753 0.24811038 -0.076631695
000290 21 62 77 bc 8e 60 7f bd 78 c8 84 3d d7 21 9a bc
       -0.015099079 -0.06234794 0.06483549 -0.018814964
0002a0 d3 6a 01 be c5 2b 8d bd 16 4f e0 3d 81 8a d1 bd
       -0.12638406 -0.06893114 0.109525844 -0.10231496
0002b0 6c 8b 40 be 19 3e 4c 3e 9e e2 6e bd 50 9a ac 3d
       -0.18803185 0.19945563 -0.058321588 0.0842787
0002c0 43 14 1d be c2 5f 26 3e 10 2f 6c bb c5 8d 44 3d
       -0.1533976 0.16247466 -0.0036038794 0.047986764
0002d0 0a 70 04 be 4d d7 06 3e ba 28 cb 3d 42 04 39 3e
       -0.12933365 0.13168068 0.09919877 0.1806803
0002e0 eb 98 db 3c b5 6d d1 3d d8 4f ad bd 50 2e 5d bd
       0.026806315 0.10226003 -0.084624946 -0.053999245
0002f0 2b 54 64 3e b6 c4 1a 3d a8 0f 26 be d1 49 01 3e
       0.22297733 0.037785254 -0.1621691 0.12625815
000300 65 c8 9a bd 9e 92 d4 3d f4 72 9c 3c 97 12 1c 3e
       -0.075577535 0.103795275 0.019097783 0.15241466
000310 2d 72 11 3a 15 61 88 3d bd 8f f8 3d ee b6 e3 3d
       0.00055483246 0.06659142 0.12136791 0.111188754
000320 e1 62 b9 3d 39 0e 50 3d f1 5e 1c 3d 0e f4 10 3d
       0.09052063 0.050794814 0.03817648 0.035389
000330 3d 9e 76 3c d4 e9 80 bc f6 f8 8c 3c e4 ca a0 bd
       0.015052375 -0.015736498 0.017208558 -0.07851198
000340 1e 82 47 3e 54 41 e5 bd d1 68 a1 bc 5f 09 9a bd
       0.1948323 -0.11194101 -0.0197033 -0.07521319
000350 0e b8 d2 bb 9a 73 0e 3e 5e 00 c8 3d a0 7a 25 bd
       -0.0064306324 0.13911286 0.09765695 -0.040400147
000360 e7 6d af 3d b0 48 3f be 0f 8b 43 be 9e 2a 10 bd
       0.08565884 -0.18680072 -0.19096015 -0.035196893
000370 d3 5c b3 bd f8 ef 1d be b9 00 00 be 4f 70 ca 3c
       -0.08757939 -0.15423572 -0.12500276 0.024711756
000380 4e 0f d7 3d c7 28 ff bd 8e 50 3e bd 87 83 04 3e
       0.10500966 -0.124589495 -0.04646354 0.12940799
000390 6f ea 35 bd 59 eb 9e bd 35 42 2b bc 87 d2 fe bb
       -0.044413026 -0.07759733 -0.010452797 -0.0077765617
0003a0 12 25 0e be c6 a4 70 be 61 74 24 bd 96 43 ac 3d
       -0.13881329 -0.23500356 -0.04015005 0.084113285
0003b0 94 08 c4 bc 90 54 14 be 32 cf 52 be e6 f2 da bd
       -0.023929872 -0.14485383 -0.20586851 -0.106908605
0003c0 d9 33 87 bd df 24 64 3d 3d c9 14 be 97 97 8b 3d
       -0.06601686 0.055699226 -0.14529891 0.06816023
0003d0 18 a2 18 be 46 2e 8f 3d 7a c0 ec bd 56 62 06 be
       -0.14905584 0.06991248 -0.115601495 -0.1312345
0003e0 70 ab 48 be 5d 95 07 be b3 0d 29 3c 4f 76 0e be
       -0.19596648 -0.13240571 0.010318208 -0.13912319
0003f0 75 27 e8 3d dd 89 7f ba 83 b2 b8 3c 38 88 8a bd
       0.11335651 -0.0009748021 0.022546059 -0.06764263

network_body._body_endoder.seq_layers.2.bias f4 [128]
000000 5d 76 23 3c 62 87 de 3b ba ae f1 bc ef 3a 58 3d
       0.0099769505 0.006791041 -0.029502261 0.05279058
000010 05 c0 30 3d 46 40 78 3c 77 fb 3e 3d 9c b8 d2 3c
       0.043151874 0.015152043 0.046626534 0.025722794
000020 7b fe 98 3c 49 8f b6 3c 21 93 7a bb 06 f4 ac 3c
       0.018676033 0.02228512 -0.0038234668 0.021112453
000030 8e de 40 3c 9f 76 26 3c fe f7 7b 3c 3b dd 7d 3c
       0.011771811 0.010160117 0.01537895 0.01549464
000040 99 2d f1 bb 8a 60 97 3c 68 e0 39 3a 4d 7a 8a 3c
       -0.007360172 0.01847865 0.0007090629 0.01690402
000050 fc 54 3c 3c 63 35 63 bd b9 96 2e 3c d5 b2 b1 3c
       0.011494871 -0.055470835 0.010656052 0.02169172
000060 f3 9f c6 bc bb 8c 70 3c d3 1e a4 bc 21 70 3a 3c
       -0.024246192 0.01468199 -0.02003423 0.011379273
000070 c9 04 21 bc 07 3c 18 3d d9 0b 5a bc f4 df 4d 3b
       -0.009827801 0.03716662 -0.013308489 0.0031414004
000080 03 a1 06 ba a6 b9 d6 bb 4d f2 4d bc 7c a7 c0 3c
       -0.0005135687 -0.0065528927 -0.012569976 0.023517363
000090 a8 24 25 3d 35 1c 09 3d 45 76 05 3c 08 a7 99 3c
       0.04031816 0.033474166 0.008145873 0.018756405
0000a0 78 72 32 bc 9d 56 2b 3d 6d ee cb bc 00 20 b8 3c
       -0.010891549 0.041830648 -0.024893964 0.022476196
0000b0 0f 75 0f 3d 23 d8 24 3d 98 25 18 bd b2 62 2c bc
       0.035023745 0.040245187 -0.037145227 -0.010521578
0000c0 26 d8 28 3c cf a2 e8 3a 40 6d 0a 3d fb be 3a bc
       0.01030544 0.0017748716 0.033795595 -0.011398072
0000d0 cf 26 57 3c 55 3b 40 3d 42 90 eb 3b 6a f0 a8 3c
       0.013131811 0.046931583 0.0071888277 0.02062245
0000e0 f6 3e cd 3c f9 48 b0 3c 9b ff 0b bb 71 d8 5c 3c
       0.025054436 0.021519171 -0.002136207 0.013479338
0000f0 3b 33 b5 3c d4 65 aa 3c 35 3a a1 3c da b5 35 3c
       0.022119155 0.020800509 0.019681076 0.01109072
000100 9e a8 5f 3d 23 76 91 3d 07 58 ba 3c ac 01 03 3d
       0.054604165 0.07102611 0.022747053 0.031984016
000110 82 c7 29 3c f7 5b 06 3c 03 c2 6d 3c 93 0f 84 3c
       0.010362508 0.008200637 0.014511588 0.016120708
000120 63 5c 90 3c 13 4e 54 3c 0f 1f 22 bd 8f ee 9d bb
       0.017622178 0.0129580675 -0.0395804 -0.004819698
000130 e6 07 8a 3c 32 65 03 3d 9e 98 b6 3c e8 89 89 3c
       0.01684947 0.03207893 0.02228957 0.016789392
000140 47 bf a1 3c e3 5a 03 3d 99 54 95 3c cc 09 4c 3b
       0.019744528 0.0320691 0.018228816 0.003113377
000150 e9 0d 2d 3d b9 51 88 3c ba 16 a3 3c de 7a 5f 3c
       0.042249594 0.01664053 0.019908298 0.013640134
000160 2d b2 df 3c 83 79 66 3b b8 18 20 bb 6c 56 cb 3c
       0.02730664 0.0035167641 -0.0024428796 0.024821483
000170 5b a3 9b 3a 4c b5 d4 bb 73 3e 80 3c 8c 84 91 3c
       0.0011874245 -0.006491339 0.015654778 0.017763399
000180 8d 1e 13 3c d0 3e 33 3c 5c 95 ff bc 5f 7b 92 3c
       0.008979452 0.010940269 -0.03119915 0.017881094
000190 e8 9b 2c 3d e5 d5 01 3b 11 1c b4 3c 1c 2a 2a bc
       0.04214087 0.001981133 0.02198604 -0.010386016
0001a0 cd a9 cd 3c 9e ff ae 3d 5a de 4c 3c 79 6d 1c 3d
       0.025105381 0.08544849 0.012504185 0.03819034
0001b0 bf e2 cd 3b 61 9d 15 3c fc 4a 15 bd d5 56 53 3c
       0.0062831338 0.00913176 -0.036448464 0.01289912
0001c0 9c 62 bd 3c a3 58 19 3d 71 3f ea 3c 7e 39 96 3c
       0.02311831 0.037438046 0.028594704 0.018337961
0001d0 35 d0 09 bc 1b 45 82 3c 78 3f 34 3d ba 80 9d bc
       -0.008411457 0.015902093 0.04400584 -0.01922642
0001e0 41 65 c8 3d b7 53 ae 3c bd 5b c9 3c 5a 2c 0d 3b
       0.09784938 0.021280153 0.024579877 0.0021541328
0001f0 9b c5 8c bc 87 9c f7 39 a2 1b 71 bb d5 62 c3 bc
       -0.01718407 0.00047228133 -0.0036790152 -0.023850838

network_body._body_endoder.seq_layers.4.weight f4 [128, 128]
000000 4f 8d c1 bd b1 9f 96 bd 86 ac 0d bd 09 56 c2 3d
       -0.094507806 -0.073546775 -0.03458836 0.09489066
000010 7a 15 27 bd 75 11 f3 3d 55 ae 9f bc 63 f6 73 be
       -0.040791966 0.11868564 -0.019492308 -0.23824458
000020 03 2c a4 3d 90 92 0f 3e 04 8a 63 3d 7f 80 00 3d
       0.08016207 0.14020753 0.055551544 0.031372543
000030 bd 2c 2e bd 0f 3e 0d 3e db 38 4e be a8 1b 9d 3b
       -0.042523134 0.13793205 -0.20138876 0.0047945566
000040 d3 dc b0 3d d1 52 2f bd 74 75 7d bc 53 9b 1c 3d
       0.08635869 -0.04280359 -0.015469898 0.038234066
000050 f8 fc 0e be bf e8 d9 3d 5f 61 15 3e d1 d7 04 be
       -0.13963687 0.10640096 0.14587925 -0.12972952
000060 d3 dc 5a bc 22 05 25 bd 00 14 0e 3e 89 c5 9a ba
       -0.013358313 -0.0402881 0.13874817 -0.0011808138
000070 f2 c5 eb 3c c0 09 a6 3d 88 d2 d7 3c 67 a5 27 bd
       0.028780911 0.081073284 0.026345506 -0.040929224
000080 fd a1 46 3d dd dd 97 3d 63 fb 94 3c f5 bd a6 3b
       0.048494328 0.07415364 0.018186277 0.0050885626
000090 d2 af 24 3e 02 8b e5 3d 3d 21 2a 3e 07 bb ad bd
       0.16082695 0.11208154 0.16614242 -0.08482938
0000a0 8b e2 a9 3d bf 08 b7 bd cd c7 30 be bb 2a ea bd
       0.08295163 -0.08937215 -0.17263718 -0.114339314
0000b0 74 c8 5b 3d 2b 87 41 3e cb 65 62 3d 88 f9 7e 3c
       0.053657964 0.18899219 0.05527286 0.015562423
0000c0 74 66 2f 3d 1a b9 68 3d 8a fb 81 bd 2d 73 2f be
       0.042822316 0.05681715 -0.063468054 -0.1713378
0000d0 db 58 12 bd ed 1d 04 bc 74 c9 53 bd 21 a1 9e bc
       -0.03572927 -0.0080637755 -0.051705793 -0.019363942
0000e0 32 a5 e7 bd 5c 08 81 be 33 b3 be bd 39 0c 15 be
       -0.113108054 -0.2520169 -0.09311523 -0.14555444
0000f0 19 6d 10 bd 91 94 b1 3d b6 26 52 3e 35 57 4c be
       -0.035260294 0.08670915 0.2052258 -0.19955142
000100 71 f8 86 bc fc 78 a8 bc f0 0a a5 3d e3 a5 70 bd
       -0.016475888 -0.020565502 0.08058727 -0.058751952
000110 a7 f0 b5 bd b8 91 96 3d 18 a4 2d 3d 15 eb 9a bd
       -0.088837914 0.073520124 0.04239282 -0.075643696
000120 56 b1 62 bd 80 65 cb 3d 37 a4 fc bd fe 87 91 3c
       -0.055344902 0.09931469 -0.12336009 0.017765041
000130 35 c2 df 3d 13 d8 d2 bd 49 9a 15 3e dc f7 d7 bd
       0.10925714 -0.10295119 0.14609636 -0.10545322
000140 b3 67 47 3e f8 9f dc bd ec 31 1a be 38 67 99 3d
       0.19473152 -0.10772699 -0.15058106 0.074903905
000150 4d a2 69 be ed f7 b4 bd 36 00 de bd 4d 2c b1 bd
       -0.22815819 -0.088363506 -0.10839884 -0.08651028
000160 81 5a 87 bc c2 5c e5 bc cd e7 30 3d cd 4c 0a 3e
       -0.016522648 -0.027998332 0.043189812 0.1350586
000170 fd 66 71 3b 04 49 06 be 66 03 d8 bd 41 52 c0 3a
       0.0036835067 -0.13113791 -0.10547523 0.0014672951
000180 d8 d9 b9 3d f0 c8 d8 bc bb 68 86 3d ef 34 f5 bd
       0.090747535 -0.026463002 0.065629445 -0.11972987
000190 20 72 a2 bb 67 9a b1 3d 33 c1 a3 3d db b3 08 3d
       -0.0049574524 0.08672028 0.07995834 0.03337465
0001a0 9f a5 09 3c 5f 00 9c bc 99 98 4d 3d e7 56 06 3e
       0.008401304 -0.019043146 0.050194357 0.13119088
0001b0 d4 ca 5d 3d fc b5 3c 3e f8 89 e9 3d 30 cf 1c 3e
       0.05414851 0.18428797 0.114032686 0.15313411
0001c0 90 06 0e 3d 8e d1 c7 bd ad 9f e2 bd 65 7f 92 3d
       0.034674227 -0.09756766 -0.11065612 0.07153205
0001d0 11 1d 3b 3e 49 ed 80 bd 14 d4 6f 3d 87 3d 91 bd
       0.18272807 -0.062952586 0.058551863 -0.070918135
0001e0 45 f7 9d 3d a0 7f ab bd 14 f6 34 bd 7d f2 dc bd
       0.077131785 -0.08373952 -0.04417999 -0.107884385
0001f0 d9 12 70 3d 50 44 40 bd da c0 02 3e 6d 82 b0 3b
       0.058611725 -0.046940148 0.1276888 0.0053866417
000200 0d 70 e5 3d 4e 4d c9 3d a5 99 56 3d e1 61 88 bd
       0.112030126 0.09829198 0.05239262 -0.06659294
000210 55 de 9e bd 1d 64 dc bd 37 67 ab 3c be 38 ae bd
       -0.0775725 -0.107612826 0.02092324 -0.085069165
000220 56 ca 19 be 63 36 b6 3d f1 42 9a be 6f ed 7b 3d
       -0.15018591 0.08897092 -0.30129197 0.06150573
000230 37 82 9c 3c e4 32 a3 bb f9 ef c0 3d f5 d2 0d bd
       0.01910506 -0.004980432 0.09420771 -0.034625012
000240 fa 34 dd bd 60 6c fa bd 8d 19 e5 bd e9 5a 8f bd
       -0.1080112 -0.12227702 -0.11186514 -0.069997616
000250 7f 83 a4 3d 2e 97 08 bd 6f e1 25 be 82 4e 52 3d
       0.080328934 -0.0333473 -0.16199277 0.051344402
000260 ae 61 d4 bc 5b fa 0a be 66 bd b8 3d b2 ec d6 3d
       -0.025925484 -0.13572066 0.090205 0.10494365
000270 8e ec 22 b9 02 e3 89 be 3b 64 0a be 5b 6e b2 bd
       -0.00015537647 -0.26931006 -0.13514797 -0.08712455
000280 a1 37 aa 3c 35 c6 c6 bd 6d 30 ca bd 80 59 a6 3d
       0.020778479 -0.09705774 -0.09872518 0.081225395
000290 a9 69 bf bd ae 3d ea bd 76 60 a7 3d 4f 16 b9 3c
       -0.09346325 -0.11437546 0.08172695 0.022593645
0002a0 00 65 21 bd c2 c7 32 3e c6 8a d4 3b dc 1c 53 3d
       -0.03940296 0.17459014 0.0064862696 0.051541194
0002b0 78 e2 16 be 20 cc f1 bd a6 08 ed bd 30 6f 81 3d
       -0.14734828 -0.11806512 -0.11573915 0.063200355
0002c0 b8 cf 06 bd 0d b6 6d be 97 aa be 3d b2 0c 43 bc
       -0.03291294 -0.23213978 0.09309881 -0.011904882
0002d0 79 ff bb 3d 1b 34 bc 3d 2e 0c 08 be c5 79 04 3d
       0.09179587 0.09189626 -0.13285896 0.03234269
0002e0 7e 1d 87 bd 57 0b 26 3e b2 b4 02 3d 23 1d 4b 3b
       -0.06597422 0.16215263 0.031910606 0.0030992709
0002f0 13 b2 59 3c 62 41 27 bd 6b 77 a9 3b 0c 89 2c 3e
       0.013287085 -0.04083384 0.0051717064 0.16849154
000300 5f c8 91 bd 0f 28 8c 3d f1 fb 3d 3e 93 b1 5f bd
       -0.07118296 0.06843578 0.1855314 -0.054612707
000310 c6 bf c1 bd 09 22 46 3e 60 64 75 3c 56 5b fd 3d
       -0.09460406 0.19348921 0.014977545 0.123709366
000320 63 58 11 bd e6 cf 89 bd 13 56 c3 bb 12 29 39 ba
       -0.035484683 -0.067291066 -0.0059611886 -0.000706331
000330 b1 44 1d be 20 f0 74 bd 09 02 ee bc 7d 87 be 3d
       -0.15358235 -0.059799314 -0.029053705 0.09303186
000340 5f 7e 73 3d c8 1f 0f 3e d4 e9 2f bd 13 5c 00 3d
       0.05944669 0.13976967 -0.042947605 0.03133781
000350 b6 34 4f 3c ac 0e 03 3e a7 82 2b 3c a8 f2 d7 3d
       0.012646845 0.12798566 0.010468162 0.1054433
000360 9e c2 11 3e 8f 37 6a bd 26 8e 49 3d 1c fe 2a be
       0.14234397 -0.05718189 0.04920783 -0.16698498
000370 b0 a0 7f be 77 a2 18 bd 39 70 29 3e 49 44 1e be
       -0.24963641 -0.037264314 0.16546716 -0.15455736
000380 4d 2c 33 be b1 70 a7 bd e9 74 64 3d 88 8d fd 3c
       -0.17497368 -0.08175791 0.055775557 0.030951276
000390 1b d1 76 3d bf 6b 06 be 52 82 6a be 5b a4 f7 3d
       0.060258012 -0.1312704 -0.22901276 0.12091895
0003a0 c1 ad aa bd 3d e5 4f bd e3 a3 e4 3d 98 0a 06 bd
       -0.08333922 -0.050755728 0.111640714 -0.032724947
0003b0 0c 31 d2 bd d7 1c 2f 3d 73 86 3a be 49 17 0f be
       -0.10263261 0.042752113 -0.18215351 -0.13973726
0003c0 d0 33 91 bd 1b f9 bc 3d 87 8b a6 bc fc 52 73 be
       -0.070899606 0.092272006 -0.020330204 -0.23762125
0003d0 47 34 47 be b6 11 aa 3d bc 95 37 bd 54 7e e5 bd
       -0.19453536 0.08304159 -0.044820532 -0.11205736
0003e0 47 8e 1c 3e 0a 9f bd 3c 25 43 2c bc 34 45 18 bd
       0.1528865 0.023147125 -0.010514055 -0.037175372
0003f0 e0 b0 d8 bd 7e 92 5f be 29 30 2a 3d aa 12 0b 3e
       -0.10580611 -0.21833226 0.041549835 0.13581339

network_body._body_endoder.seq_layers.4.bias f4 [128]
000000 6b 34 02 3d 79 24 21 3d dc e4 8f 3c 18 7c 43 3c
       0.03178827 0.039341424 0.017565183 0.011931442
000010 53 f0 06 3d 5a 57 de bb ce a3 65 3d 98 5c 89 3c
       0.032944035 -0.0067853155 0.05606442 0.016767785
000020 26 c8 d9 bb 02 9f 41 bc 0e e7 db 3c 07 05 30 3d
       -0.006646174 -0.011817696 0.026843574 0.042973544
000030 15 67 ee 3c aa 83 23 3c 19 c8 46 bd d5 c1 a4 3b
       0.029101888 0.009980122 -0.04853067 0.0050279894
000040 0f 92 21 3c 9c 3b 1e 3d 53 f1 cd 3a 0b 3b d5 3c
       0.009861483 0.038631067 0.0015712179 0.02602913
000050 f2 2d c1 3c da 7f b3 3b c9 30 9c 3c a8 b6 00 3c
       0.023581479 0.0054778876 0.019066231 0.007856049
000060 95 9b 33 3c 1b 44 c1 3b 0f 54 82 3c 36 5d 68 3c
       0.010962387 0.0058980114 0.015909223 0.0141823795
000070 c8 c7 93 3c 26 dc f2 bc cb 91 be 3c ed 86 d9 3b
       0.018039599 -0.02964599 0.023262879 0.006638399
000080 c1 e5 96 3c 75 08 07 3d 45 ab 72 3b d8 d1 ac 3c
       0.018420102 0.03296705 0.0037028354 0.021096155
000090 a7 cd c8 3c ea 03 21 3d 4c cd a4 3b c2 49 98 bc
       0.024512125 0.039310373 0.005029356 -0.018589858
0000a0 d6 6a 4d 3c 83 7d e9 3c 0c 64 40 3c 3a 2e a5 bc
       0.012537679 0.028502231 0.011742603 -0.020163644
0000b0 9b 97 09 3d 8f c2 46 3c da aa 56 bb 85 a7 a3 3c
       0.033591848 0.012131347 -0.0032755644 0.01997734
0000c0 e7 b4 09 3d 56 c4 7b ba 6c 9e 2a 3c 54 fa e6 3b
       0.033619788 -0.00096041465 0.010413747 0.0070488844
0000d0 54 e6 d2 3c da 26 bc 3c 94 bf b5 3c 3d f7 d3 3c
       0.025744595 0.022967745 0.022186078 0.025874728
0000e0 03 0b a5 3c 23 f1 9d 3b 0b 23 8a 3c 4b 7d 3d 3c
       0.020146852 0.0048200055 0.016862413 0.011565517
0000f0 20 c7 ff bc b5 4c 13 bd 99 74 ce 3c 2b 86 b4 3b
       -0.03122288 -0.035961825 0.025202082 0.005509158
000100 82 5d 3e bc 39 e9 e4 b9 a8 2a 4a 3d b9 d9 d5 3c
       -0.011618974 -0.00043661313 0.049357086 0.026104795
000110 89 c1 d0 3c 07 81 18 3d 2c 19 8d 3c fb 0a 98 3c
       0.02548291 0.037232425 0.017223917 0.018559923
000120 5f ed 6d bb 05 ab 8f 3c 9b e1 03 3d a9 f3 80 3b
       -0.0036304814 0.017537603 0.032197576 0.0039352966
000130 91 46 05 3c 84 47 53 3c 92 6f c7 bc 35 c3 ee 3c
       0.0081345 0.012895469 -0.024345193 0.029145816
000140 20 b4 ce 3c 57 5a 2d 3d aa 47 ca bc bf e6 0e 3c
       0.025232375 0.042322483 -0.024692375 0.008722006
000150 ae cc 64 3c 4e ce 5d bc b9 19 0c 3d 11 82 0a 3d
       0.013964815 -0.013537956 0.03420422 0.033815447
000160 df 03 b5 3c d4 42 9f 3c 45 7f 09 3d 7f 6d 9d 3c
       0.022096572 0.019441046 0.03356864 0.01921725
000170 47 5b f6 3b b3 22 fb 3c 1f 53 63 3c ff 47 ea 3c
       0.0075182053 0.030656194 0.013874798 0.028598784
000180 17 17 44 3c 7b 90 91 3c 51 23 e7 3b e0 4b 02 3d
       0.011968396 0.017769089 0.0070537706 0.03181064
000190 82 ac 07 3d 0c 43 a1 3c f9 0a aa 3c 93 74 c4 3c
       0.0331235 0.01968529 0.020757185 0.023981368
0001a0 40 1e 74 3c c3 22 c5 3c 62 ae fd 3c 05 b2 83 3c
       0.01489979 0.024064427 0.030966941 0.016076097
0001b0 3e a6 d6 3c 87 f2 73 3c 1a 1d af 3c 18 86 26 3d
       0.026202317 0.014889366 0.021376181 0.040655226
0001c0 54 9b 8b 3c a7 90 1a 3d 30 d4 b8 3c a4 ac 78 bb
       0.01704184 0.037735607 0.022562116 -0.0037944699
0001d0 8e dc 5f 3c 7d 38 82 3c 80 3c 9d bc c4 4a 0d bc
       0.013663424 0.015896076 -0.019193888 -0.008623783
0001e0 ba e3 d6 3c e0 5a 13 3c 2e 2e b5 3c ae 88 d3 3c
       0.026231635 0.008993834 0.022116747 0.02582201
0001f0 f4 72 e1 3c 4d 44 9e bc ca 15 d6 3c d5 25 6f 3c
       0.027520634 -0.019319678 0.026133437 0.014596422

action_model._discrete_distribution.branches.0.weight f4 [2, 128]
000000 7a c0 14 3d 1c d2 93 bd a3 b3 5b 3d ab 46 92 bd
       0.036316372 -0.072178096 0.05363811 -0.07142385
000010 a0 ce a3 bd e0 ed 5c 3c 1c 70 c6 bc 48 4d 88 3d
       -0.07998395 0.013484448 -0.02422338 0.06655365
000020 4b dc 76 bc cb c0 64 3c cb d6 90 3d 62 4d 88 3d
       -0.01506717 0.013961981 0.070722185 0.066553846
000030 3a 67 b8 bd 86 ba 98 bd 62 52 ce 3c eb 09 51 bd
       -0.09004064 -0.074574515 0.025185768 -0.05103485
000040 1f 73 62 bd 32 26 64 3d 20 ee 04 3d d3 73 b5 bd
       -0.05528557 0.05570049 0.032453656 -0.08859982
000050 13 3a b6 bb 4f d9 31 3d d9 b5 45 3d 4b f7 44 3d
       -0.005561122 0.043420132 0.048269127 0.0480874
000060 d7 c9 a4 3c af cc 3d 3d 8b 34 8f bd 9c 42 68 3d
       0.020115776 0.04633778 -0.06992444 0.05670415
000070 c0 4c 3a 3d e1 5c 24 bb 5c 52 81 bd cb d6 54 3d
       0.04548335 -0.0025079774 -0.06314537 0.051962655
000080 58 9b 76 3d 78 e9 b6 bd 67 2c 6d bc 7d 21 5b 3d
       0.06020674 -0.089312494 -0.014475918 0.053498734
000090 06 95 a1 bd 0a 02 c0 bd b4 db 64 3d 6e f6 87 3c
       -0.07889752 -0.09375389 0.055873588 0.016596999
0000a0 9d 69 69 3d d6 eb c1 bd 3b bf 0d 3d f3 aa 77 3c
       0.056985486 -0.0946881 0.0346062 0.015116441
0000b0 41 a3 d6 bd ce 9c 46 3d ba 43 e7 3b e3 5a 44 bd
       -0.10480357 0.048489384 0.007057634 -0.04793824
0000c0 ed ce c4 bd 1d 8a f2 3b c4 01 84 bd 37 cd 55 ba
       -0.096097805 0.0074017183 -0.06445649 -0.00081558846
0000d0 4a b1 ad bd 65 60 a2 bd 4f 76 b7 3c 8b a4 a1 bd
       -0.08481081 -0.07928542 0.022395281 -0.07892712
0000e0 45 1f 5a bd 86 cc a6 3c 86 a1 10 3d f2 0b 90 bd
       -0.053252477 0.020361196 0.03531029 -0.070335284
0000f0 6a bc 14 3b a9 cb 9d 3b 03 72 ad bd 26 f5 5c 3d
       0.0022695311 0.004815538 -0.08469012 0.05394473
000100 93 d6 c6 3c 55 e8 f4 bb cc 3c a1 3d 28 d1 d2 bd
       0.024272239 -0.007473985 0.07872924 -0.102938
000110 b9 83 4d 3d f6 0b 9d bd 0c 6f 1b bd 8d 58 e0 3c
       0.05017445 -0.07668297 -0.0379477 0.027385974
000120 55 0b da ba 3b ed d6 3c ce af 80 3d 0a c8 62 3d
       -0.0016635457 0.026236167 0.06283532 0.055366553
000130 59 8d 8d ba f6 b3 84 bd 4d 3b 41 3c ef 12 8a bd
       -0.0010799571 -0.06479637 0.011793924 -0.067418925
000140 89 f7 55 3d bc a3 76 bd dd 5a 35 3c 2f 0a e3 bb
       0.05223802 -0.060214743 0.011069027 -0.006928704
000150 32 eb 96 3d 75 4f eb 3c 86 fe b8 bd 7a ca 8b bd
       0.07369079 0.028724412 -0.090329215 -0.06825729
000160 69 fe 20 bd 87 db 9f bd 78 43 60 3d e8 b8 5f bd
       -0.039305124 -0.078055434 0.054751843 -0.0546197
000170 e1 62 9c bb c8 7d 9d bd b5 f3 90 bd 85 99 91 bd
       -0.0047725295 -0.076900065 -0.070777334 -0.0710936
000180 f6 af 89 3c b2 13 97 bd 6b 9e 3f bd 5b b8 6e bd
       0.016807538 -0.073768035 -0.04678194 -0.058281284
000190 9d 4b f5 3a 61 4b 05 bd 7e e6 a3 bd 70 c6 a8 3d
       0.0018714551 -0.03254259 -0.08002947 0.08240974
0001a0 98 97 33 3d 09 52 e1 bc 71 bf e3 bd 59 1f c3 bd
       0.043845743 -0.027504938 -0.11120499 -0.095274635
0001b0 ee c7 9f bd d5 e5 78 bd 59 f1 8e bd 28 2b ab bd
       -0.078018054 -0.06076606 -0.06979627 -0.08357841
0001c0 e2 9b a6 bd 4f 8f c5 bd 09 ef b2 bd d1 36 3d 3c
       -0.08135201 -0.096464746 -0.087369986 0.011548714
0001d0 c9 7a 13 bd b9 5b 6e 3d 76 61 47 3c 4f a6 43 3a
       -0.03600577 0.058192942 0.012169233 0.00074634416
0001e0 5a c1 96 bd c9 3a 54 3d 03 7f d5 bd a2 27 af bd
       -0.07361098 0.051813874 -0.10424616 -0.08552481
0001f0 16 48 b6 bd a1 b1 02 3d 82 67 a4 bd ee c1 35 3d
       -0.08900468 0.03190768 -0.08027555 0.0443744
000200 07 06 0f bd a1 91 99 3d 7b e6 5f bd da 4a 9c 3d
       -0.034917857 0.0749848 -0.054663163 0.07631464
000210 d4 8c b9 3d 33 78 3d bc 52 ac fd 3c 1b 4f 59 bd
       0.09060064 -0.011564302 0.030965958 -0.053053956
000220 15 1c 48 bc 76 f0 b0 bc a0 0f 3e bd f1 32 74 bd
       -0.0122137265 -0.021599036 -0.04640162 -0.059618894
000230 d6 c3 a4 3d 64 93 76 3d 26 1b e8 bc b8 dc 44 3d
       0.08045165 0.060199156 -0.028333258 0.048062056
000240 fa 80 29 3d 05 63 66 bd 7c 01 78 bd 58 1e c2 3d
       0.041382767 -0.056246776 -0.06054829 0.09478444
000250 61 e2 1d 3c a8 16 24 bd 9b f1 03 bd 42 79 15 bd
       0.0096364925 -0.04006067 -0.032212835 -0.036492594
000260 4b c9 a4 bc 12 40 1a bd 78 1b 9b 3d 9b e0 64 bd
       -0.020115515 -0.03765876 0.075735986 -0.055878263
000270 38 b8 67 bd 55 c2 70 bb f0 82 77 3d a0 be 31 bd
       -0.05657217 -0.0036736925 0.060427606 -0.043394685
000280 69 a2 3d bd 7f 9f b9 3d d8 41 3f bb df 47 65 bd
       -0.046297465 0.090636246 -0.0029183533 -0.055976745
000290 06 1b 96 3d 88 6b be 3d be ad 32 bd f5 e1 84 bb
       0.07329373 0.09297854 -0.043622725 -0.0040552565
0002a0 93 8c 5a bd d3 0c be 3d 1a 06 2c bd 81 ed 19 bc
       -0.05335672 0.0927979 -0.041998006 -0.009395004
0002b0 00 4f c3 3d d5 a3 34 bd c3 18 0e 3c c2 7a 5b 3d
       0.095365524 -0.044101555 0.008672896 0.053583868
0002c0 06 21 c8 3d 05 89 93 bc c0 af 9d 3d 44 13 47 bc
       0.09771924 -0.018009672 0.07699537 -0.012150589
0002d0 22 26 ad 3d 11 1b a1 3d a6 aa 3d bd b5 d6 93 3d
       0.08454539 0.07866491 -0.04630532 0.072186865
0002e0 ac fb 88 3d a7 69 03 bd 2b e4 53 bd 16 2c 89 3d
       0.066886276 -0.03208318 -0.05173127 0.06697862
0002f0 15 4a 91 bb cf 87 a0 bc 6a 49 b0 3d 4f 7f 47 bd
       -0.00443388 -0.019596009 0.086077526 -0.048705395
000300 6f 16 11 bd 5c dc 96 bb 87 41 a2 bd fa b2 ac 3d
       -0.035421785 -0.0046039056 -0.079226546 0.084325746
000310 72 5d 3f bd b9 56 c0 3d 12 4c 44 3d aa d7 1a bd
       -0.046719976 0.09391541 0.04792411 -0.03780333
000320 66 5f 8c 3c 26 6c 4d bd 47 f0 67 bd ea b2 6e bd
       0.017135333 -0.050151967 -0.05662563 -0.058276094
000330 ad bb 16 3c 81 e9 9a 3d e2 0e ff bc 8e 8a 9c 3d
       0.009200019 0.075640686 -0.031135026 0.07643615
000340 b6 01 b3 bd ab c1 71 3d 09 a6 b6 bb a0 d4 0a 3c
       -0.08740561 0.059022587 -0.005573992 0.008473545
000350 7b 9c 89 bd f7 29 c0 bc 22 a3 a4 3d 1a a3 7e 3d
       -0.067192994 -0.02345751 0.080389276 0.062167265
000360 a7 04 09 3d fc 5c 89 3d 5a 09 62 bd d9 23 89 3d
       0.033451702 0.067071885 -0.0551847 0.066962905
000370 0d 41 6e 3b 90 43 ad 3d 00 1d 82 3d 32 9b 9d 3d
       0.0036354691 0.08460152 0.063531876 0.07695617
000380 23 d2 08 bd fd 23 8d 3d 38 5f 6e 3d 4e 5e 42 3d
       -0.033403527 0.0689163 0.058196276 0.047453217
000390 06 a5 18 bc 64 73 a4 3c 0c 46 86 3d 7f 44 83 bd
       -0.009316688 0.020074554 0.06556329 -0.06409549
0003a0 e4 e5 67 bd 63 57 23 3d 91 c0 8c 3d 19 37 91 3d
       -0.056615725 0.03987826 0.068726666 0.07090587
0003b0 63 21 ba 3d f0 94 ab 3d 08 2f 89 3d 3a 8b b2 3d
       0.09088399 0.08378017 0.066984236 0.087179616
0003c0 e3 11 b9 3d b3 1a bf 3d 51 ac 8a 3d ec cb 20 bd
       0.09036615 0.09331264 0.06771148 -0.039256975
0003d0 1e 2c 80 3d 04 1f 6e bd dd 44 84 bc 6d 8b c9 bc
       0.06258415 -0.058135048 -0.016146118 -0.024602616
0003e0 b6 14 be 3d 64 80 6d bd dc 70 ba 3d 5f 4d ac 3d
       0.09281294 -0.05798377 0.091035575 0.08413195
0003f0 2c 0e bd 3d 05 2b 3d bc 35 b8 85 3d 0c 9f 34 bd
       0.09231219 -0.011545901 0.06529275 -0.04409699

action_model._discrete_distribution.branches.0.bias f4 [2]
000000 81 7f c3 bb d0 81 c3 3b
       -0.0059661274 0.0059664026

exp_avg f4 [128, 15]
000000 fb 0f 5b 2e 31 72 d8 b5 9b b5 90 2f ca d7 a4 b5
       4.980903e-11 -1.6126488e-06 2.6322486e-10 -1.2281755e-06
000010 2b 91 96 b6 50 9d 96 b6 c5 77 9d 2f 49 43 99 b5
       -4.487248e-06 -4.488662e-06 2.8643235e-10 -1.1418971e-06
000020 1b fa 96 b6 c2 fe 96 b6 e6 47 73 b1 14 3a a9 b5
       -4.4994645e-06 -4.500006e-06 -3.5402024e-09 -1.2608384e-06
000030 10 fa 96 b6 3b ff 96 b6 64 13 97 b6 58 4a 65 2f
       -4.4994595e-06 -4.500061e-06 -4.502408e-06 2.0853841e-10
000040 eb 65 13 b7 3a aa 83 32 70 ac e0 b6 24 6f cc b7
       -8.785612e-06 1.5327817e-08 -6.6957946e-06 -2.4370449e-05
000050 67 7c cc b7 f5 5d 37 32 71 0d d1 b6 f7 a8 cc b7
       -2.4376624e-05 1.0673365e-08 -6.23025e-06 -2.4397375e-05
000060 a0 b1 cc b7 df 5b 84 b3 72 7d e7 b6 ed a8 cc b7
       -2.4401408e-05 -6.16344e-08 -6.8989402e-06 -2.4397357e-05
000070 84 b2 cc b7 31 f4 cc b7 75 51 33 ae bf 52 ab 36
       -2.4401823e-05 -2.4432406e-05 -4.0772236e-11 5.10583e-06
000080 93 7e 07 b2 04 37 82 36 70 52 6d 37 0e 4a 6d 37
       -7.886814e-09 3.8807066e-06 1.4145495e-05 1.4143543e-05
000090 41 2c 94 b1 0f 62 72 36 1e b2 6d 37 48 a4 6d 37
       -4.312398e-09 3.6117888e-06 1.4167772e-05 1.41645505e-05
0000a0 5d ff 0a 32 95 d4 85 36 19 b2 6d 37 db a2 6d 37
       8.09072e-09 3.9884567e-06 1.4167767e-05 1.4164219e-05
0000b0 36 96 6d 37 37 f4 a9 af 48 41 18 37 57 9c 4f b2
       1.41612745e-05 -3.0914446e-10 9.0751055e-06 -1.2084533e-08
0000c0 6a 05 e8 36 b7 94 d3 37 20 a5 d3 37 5e b0 32 b2
       6.914769e-06 2.522241e-05 2.5230052e-05 -1.0401065e-08
0000d0 3b c7 d7 36 06 ef d3 37 8d f8 d3 37 ec 02 43 33
       6.430693e-06 2.5264464e-05 2.52689e-05 4.5404633e-08
0000e0 58 b4 ee 36 f8 ee d3 37 88 f9 d3 37 6d 31 d4 37
       7.1139475e-06 2.5264439e-05 2.5269357e-05 2.5295385e-05
0000f0 49 fe 0a 30 e5 d3 b8 b7 ae 71 61 33 4c bb 8c b7
       5.056547e-10 -2.203318e-05 5.2490286e-08 -1.6776517e-05
000100 2e 3b 80 b8 93 3f 80 b8 29 06 2b 33 5f f3 82 b7
       -6.114539e-05 -6.115357e-05 3.9819643e-08 -1.5610536e-05
000110 02 6a 80 b8 20 6b 80 b8 72 24 13 b4 eb 00 91 b7
       -6.123261e-05 -6.123469e-05 -1.37037e-07 -1.7285774e-05
000120 fc 69 80 b8 3d 6b 80 b8 b0 87 80 b8 88 01 bc ad
       -6.123257e-05 -6.12349e-05 -6.1287894e-05 -2.1373806e-11
000130 a1 c9 be 34 d2 af b5 2f d0 a7 91 34 c8 83 85 35
       3.5536962e-07 3.3048636e-10 2.7130454e-07 9.947626e-07
000140 cd a5 85 35 46 42 b7 2f 91 76 87 34 8e 3a 86 35
       9.957527e-07 3.3334596e-10 2.5231978e-07 1.000082e-06
000150 a1 4e 86 35 4b c8 c8 30 45 9b 95 34 7d 3a 86 35
       1.0006662e-06 1.4608842e-09 2.7866386e-07 1.00008e-06
000160 b0 50 86 35 7a 98 86 35 d5 0a d2 af 1c 26 15 37
       1.0007261e-06 1.0028155e-06 -3.8206474e-10 8.889965e-06
000170 10 43 a0 b2 f6 23 e3 36 18 4f cf 37 2d 5a cf 37
       -1.8656948e-08 6.7693136e-06 2.4713154e-05 2.4718314e-05
000180 b3 ff 96 b2 77 35 d3 36 17 99 cf 37 b2 9e cf 37
       -1.7578577e-08 6.294514e-06 2.4747611e-05 2.4750221e-05
000190 53 79 30 33 8b b9 e9 36 09 99 cf 37 43 9f cf 37
       4.1088537e-08 6.965541e-06 2.4747585e-05 2.4750485e-05
0001a0 c9 cb cf 37 a0 e2 84 ae d7 50 82 36 0d 7d 29 b1
       2.4771218e-05 -6.042922e-11 3.883713e-06 -2.466382e-09
0001b0 20 75 46 36 6b b4 34 37 db b3 34 37 5e 6d 88 b0
       2.9572475e-06 1.0770843e-05 1.0770712e-05 -9.926386e-10
0001c0 d1 a0 38 36 67 0f 35 37 26 09 35 37 e6 b1 cf 32
       2.7511744e-06 1.0792027e-05 1.0790571e-05 2.417887e-08
0001d0 b1 40 4c 36 65 0f 35 37 81 08 35 37 2e 08 35 37
       3.0436024e-06 1.0792025e-05 1.0790421e-05 1.0790345e-05
0001e0 3d b9 62 2f 75 be d3 b6 5e 18 3f 32 0e 57 a1 b6
       2.062039e-10 -6.310462e-06 1.1123204e-08 -4.8083084e-06
0001f0 71 d4 92 b7 ad e0 92 b7 d3 70 19 32 6d 13 96 b6
       -1.7503482e-05 -1.7509179e-05 8.931425e-09 -4.47261e-06
000200 a9 47 93 b7 c4 4b 93 b7 c6 9c 2d b3 11 28 a6 b6
       -1.7557135e-05 -1.7559047e-05 -4.0422286e-08 -4.95185e-06
000210 a2 47 93 b7 2e 4c 93 b7 19 71 93 b7 2c af 29 b0
       -1.7557122e-05 -1.755924e-05 -1.757643e-05 -6.1730776e-10
000220 d9 1f 87 37 82 58 ca b2 8c fe 4d 37 89 ae 3b 38
       1.6108084e-05 -2.3556144e-08 1.22782185e-05 4.4746823e-05
000230 b3 bf 3b 38 c5 5d b2 b2 56 91 3f 37 04 f3 3b 38
       4.4762808e-05 -2.0764569e-08 1.1418326e-05 4.48106e-05
000240 a1 fe 3b 38 71 b9 c4 33 d1 01 54 37 f7 f2 3b 38
       4.4821416e-05 9.160693e-08 1.2636608e-05 4.4810553e-05
000250 d1 ff 3b 38 f0 3d 3c 38 3e 77 18 b0 13 d2 d5 37
       4.4822522e-05 4.4880377e-05 -5.546673e-10 2.5489402e-05
000260 9a c6 02 b3 c7 d3 a2 37 c9 70 94 38 b1 77 94 38
       -3.044861e-08 1.9410521e-05 7.078198e-05 7.079484e-05
000270 b1 ae b3 b2 c7 79 97 37 e6 9f 94 38 55 a3 94 38
       -2.0917783e-08 1.805731e-05 7.086973e-05 7.087613e-05
000280 a1 54 ea 33 1e 7b a7 37 de 9f 94 38 ae a3 94 38
       1.0911868e-07 1.9965282e-05 7.0869675e-05 7.087678e-05
000290 c1 c0 94 38 99 43 ae 2e 75 86 ab b6 fd 19 07 32
       7.093093e-05 7.924612e-11 -5.11185e-06 7.863943e-09
0002a0 e7 93 82 b6 47 d4 6d b7 10 db 6d b7 5d f9 f3 31
       -3.89152e-06 -1.41757255e-05 -1.4177305e-05 7.10058e-09
0002b0 64 d5 72 b6 97 51 6e b7 fe 4f 6e b7 06 28 c1 b2
       -3.618502e-06 -1.4204902e-05 -1.420453e-05 -2.2486358e-08
0002c0 9e 4c 86 b6 92 51 6e b7 d4 4f 6e b7 6b 62 6e b7
       -4.0024306e-06 -1.42048975e-05 -1.4204492e-05 -1.420882e-05
0002d0 05 7a e2 2c 2d fa 73 b5 a6 ee 15 32 16 b3 3a b5
       6.4368532e-12 -9.088861e-07 8.727204e-09 -6.9551004e-07
0002e0 18 5b 28 b6 c8 72 28 b6 d5 ce d6 31 dc 3a 2e b5
       -2.5086974e-06 -2.5100762e-06 6.251734e-09 -6.4905703e-07
0002f0 78 73 28 b6 f6 87 28 b6 33 3d 01 b3 34 e6 43 b5
       -2.5101162e-06 -2.511309e-06 -3.0090813e-08 -7.297815e-07
000300 7a 73 28 b6 13 8a 28 b6 c3 5c 29 b6 7a 71 51 af
       -2.5101167e-06 -2.511432e-06 -2.5236957e-06 -1.9048754e-10
000310 41 a8 05 37 0c a8 80 2e 94 aa cb 36 79 53 b9 37
       7.966592e-06 5.850617e-11 6.0697294e-06 2.2092589e-05
000320 0f 5d b9 37 d4 bd 48 b0 75 53 bd 36 ab dd b9 37
       2.2097052e-05 -7.302934e-10 5.6423546e-06 2.215694e-05
000330 df dd b9 37 0c 69 2e 33 b9 51 d1 36 a6 dd b9 37
       2.2157035e-05 4.060807e-08 6.238199e-06 2.2156932e-05
000340 e4 dd b9 37 22 e4 b9 37 f2 be 75 ae 74 35 d9 b5
       2.2157044e-05 2.2159951e-05 -5.5876144e-11 -1.6183317e-06
000350 e4 c0 ad b0 cc 4c a5 b5 73 f1 95 b6 63 e4 95 b6
       -1.264223e-09 -1.2315809e-06 -4.4686544e-06 -4.4671337e-06
000360 d3 d3 1c b1 95 d4 99 b5 af ee 95 b6 b9 e2 95 b6
       -2.2821396e-09 -1.1461258e-06 -4.4683325e-06 -4.46694e-06
000370 a1 a2 f9 b1 c6 df a9 b5 b2 ee 95 b6 7e e1 95 b6
       -7.2653425e-09 -1.2656608e-06 -4.468334e-06 -4.466797e-06
000380 3a c3 95 b6 b9 58 1a 2f c2 04 65 b6 88 1e 9c 30
       -4.4632734e-06 1.4037739e-10 -3.4126429e-06 1.1359171e-09
000390 dc 55 2e b6 85 3b 1f b7 27 44 1f b7 c1 a8 9a 30
       -2.5977997e-06 -9.4909965e-06 -9.4930065e-06 1.1252937e-09
0003a0 8e 16 22 b6 1f a8 1f b7 48 a9 1f b7 66 78 d2 b1
       -2.415301e-06 -9.516282e-06 -9.516552e-06 -6.125492e-09
0003b0 4d f4 32 b6 13 a8 1f b7 64 a9 1f b7 67 b2 1f b7
       -2.6666269e-06 -9.516271e-06 -9.516578e-06 -9.518676e-06
0003c0 87 b2 87 2d c5 a9 85 b6 6a b0 24 32 e2 91 4b b6
       1.5427005e-11 -3.9834727e-06 9.586168e-09 -3.0334272e-06
0003d0 31 f8 38 b7 3d fb 38 b7 ea 50 fb 31 ef 68 3d b6
       -1.1025041e-05 -1.1025751e-05 7.3142603e-09 -2.8224274e-06
0003e0 85 23 39 b7 9e 23 39 b7 c3 e5 e9 b2 d7 cc 51 b6
       -1.1035129e-05 -1.1035152e-05 -2.7229254e-08 -3.126266e-06
0003f0 82 23 39 b7 a0 23 39 b7 35 48 39 b7 de 35 ba 2f
       -1.1035127e-05 -1.1035154e-05 -1.1043671e-05 3.3871478e-10
