results/Jumper/Jumper/Jumper-499996.pt (torch, 866599 bytes, 45 tensors)

network_body._body_endoder.seq_layers.0.weight f4 [128, 15]
0	0x3d47ac08	0.048748046
1	0x3d591ebf	0.053007837
2	0xbe8cc08b	-0.2749065
3	0x3e12a8a5	0.14322145
4	0x3d0fc870	0.03510326
5	0xbeace386	-0.33767337
6	0xbe37a1a7	-0.17932759
7	0xbe9fd1f1	-0.3121486
8	0x3dc9ee13	0.09859862
9	0xbe393b17	-0.18088947
10	0x3e26d92b	0.1629378
11	0xbe9b4143	-0.30323228
12	0x3ed82792	0.4221769
13	0x3dfa7781	0.12229825
14	0x3d7d075b	0.061774593
15	0x3e73a88d	0.23794766
16	0xbe71fbdb	-0.23631231
17	0xbea2ed90	-0.3182187
18	0xbdeeed6f	-0.116663806
19	0x3ee55913	0.4479452
20	0x3d499c13	0.04922111
21	0x3e81552b	0.2526029
22	0x3db22232	0.086979285
23	0xbe0240be	-0.1272001
24	0x3ef2a636	0.47392434
25	0x3eabf50a	0.33585387
26	0xbdbbfe83	-0.09179404
27	0xbd7d4b36	-0.061839305
28	0xbf0a56ae	-0.5403851
29	0x3df28c58	0.11843175
30	0x3e0adf29	0.13561691
31	0xbd481382	-0.04884673
32	0xbe19ca32	-0.15018538
33	0xbe33e3eb	-0.17567413
34	0xbd263fad	-0.04058807
35	0xbe1d4a04	-0.15360266
36	0x3f2bf0ce	0.67164314
37	0xbc2c24a7	-0.0105067855
38	0x3e21a257	0.15784584
39	0xbd9c2550	-0.07624304
40	0xbe1c2086	-0.15246782
41	0xbeda0bd4	-0.4258715
42	0x3f124d55	0.5714925
43	0xbe61e4ba	-0.22059909
44	0xbd84746f	-0.064675204
45	0x3d785444	0.060627237
46	0x3eb0e128	0.3454678
47	0xbe989dee	-0.2980799
48	0x3c125a91	0.0089327255
49	0xbe09e291	-0.13465334
50	0x3ea1d1cb	0.31605372
51	0xbe1c8a04	-0.15287024
52	0x3e25b3b6	0.16181836
53	0x3c7d4c09	0.015460023
54	0x3dcbae46	0.099453494
55	0x3e91f441	0.28506663
56	0x3e3a4b3c	0.18192762
57	0x3f023177	0.5085673
58	0x3d0f18e2	0.03493584
59	0xbea0e1a9	-0.31422165
60	0xbe88e8e1	-0.26740173
61	0xbee4d96a	-0.44697124
62	0x3d4b8f69	0.049697313
63	0xbe8aa387	-0.27077886
64	0x3e39a18f	0.18128036
65	0x3dccc86f	0.09999167
66	0x3e5d581d	0.21615644
67	0x3ebedaf3	0.3727642
68	0xbf0409f3	-0.5157768
69	0xbe5cab89	-0.2154981
70	0xbe1e024b	-0.15430562
71	0x3d87f4df	0.06638502
72	0xbe15763d	-0.14595886
73	0x3f11478e	0.5674981
74	0x3ed82859	0.42218283
75	0xbd2c165c	-0.04201351
76	0xbe89033c	-0.2676028
77	0x3dc324cd	0.095285036
78	0xbe114f2e	-0.14190361
79	0x3e0841b1	0.1330631
80	0xbcbb53c3	-0.02286709
81	0xbcac7038	-0.021049604
82	0xbe99e707	-0.30059072
83	0xbcd2ab23	-0.02571637
84	0x3d9c8933	0.07643356
85	0x3e60a0f8	0.21936405
86	0x3e0de027	0.13855039
87	0x3d1fd4f7	0.03902146
88	0xbb78cd76	-0.003796426
89	0xbe76ab6e	-0.24088833
90	0x3e8f0622	0.27934366
91	0x3ec8b23e	0.39198488
92	0xbdcf95d8	-0.10136002
93	0x3f3ce875	0.737922
94	0x3deb3210	0.11484158
95	0x3d87f626	0.06638746
96	0x3e3d55cd	0.18489762
97	0xbcb24d3f	-0.02176535
98	0x3ebc5b3f	0.36788365
99	0xbe238a06	-0.1597062
100	0xbd7363ff	-0.059421536
101	0x3d5e7463	0.054310214
102	0x3e60ced3	0.21953897
103	0xbe507ae2	-0.20359376
104	0xbd742fa5	-0.05961575
105	0xbe8c8a00	-0.27449036
106	0x3de9bc43	0.11412861
107	0xbea0a883	-0.31378564
108	0x3cb8c48f	0.022554664
109	0x3cc2c3a6	0.023774933
110	0xbe9736c0	-0.29533958
111	0x3b8f66dd	0.004376276
112	0xbb87a867	-0.004139948
113	0x3d498350	0.049197495
114	0x3e938589	0.28812817
115	0xbe566c96	-0.2093986
116	0xbeab7e2e	-0.33494705
117	0xbe627020	-0.22113085
118	0xbe1e5e1d	-0.15465589
119	0xbe986350	-0.2976327
120	0xbe0cd2fa	-0.13752356
121	0xbe96bba9	-0.29440048
122	0x3e234ee3	0.15948062
123	0x3d1c9250	0.038225472
124	0xbe5de60a	-0.21669784
125	0xbd34ee91	-0.044172827
126	0xbd3bd340	-0.04585576
127	0xbed65f9c	-0.4186982
128	0xbe3035ff	-0.17208098
129	0xbdf65f28	-0.12029868
130	0x3e54f5e1	0.2079692
131	0xbebcbf4e	-0.36864704
132	0x3d211290	0.039324343
133	0x3e945ebf	0.28978536
134	0x3eace99e	0.33771986
135	0x3f0f4aac	0.55973315
136	0xbdeeb167	-0.116549306
137	0xbe367fdf	-0.17822216
138	0x3ea73b52	0.32662445
139	0x3eca17cb	0.39471278
140	0xbd654e0b	-0.05598263
141	0xbe8aae6b	-0.27086195
142	0xbdb0f0cb	-0.086396776
143	0x3e907ad2	0.28218704
144	0x3e19a7ab	0.15005367
145	0x3f09084d	0.5352829
146	0x3eb3e140	0.3513279
147	0xbe9d7555	-0.3075358
148	0x3eb319e4	0.3498069
149	0xbeccb9aa	-0.399854
150	0x3e87c880	0.26520157
151	0x3eae6411	0.3406072
152	0xbf337421	-0.70099074
153	0x3e0a026f	0.13477491
154	0x3ef3d829	0.47625855
155	0xbe243e56	-0.16039404
156	0x3f0286e8	0.509871
157	0x3d5483f7	0.051883664
158	0x3e82a88d	0.2551922
159	0xbd91d01c	-0.07119772
160	0xbd2be2ed	-0.04196446
161	0x3eb18c81	0.34677508
162	0x3f3d296a	0.7389132
163	0xbe54df81	-0.20788385
164	0xbeb2c527	-0.3491604
165	0xbeb04500	-0.34427643
166	0xbeb7914b	-0.35853037
167	0x3f177ee7	0.5917801
168	0xbd88c0c0	-0.06677389
169	0xbe5b71cc	-0.21430129
170	0x3e01b037	0.12664877
171	0xbe931d4f	-0.28733298
172	0xbf0af391	-0.542779
173	0x3d7f1489	0.062275443
174	0xbe3cac03	-0.18424992
175	0xbe29d462	-0.16584924
176	0xbcd0cea3	-0.025489157
177	0xbe0520d8	-0.1300081
178	0x3eb216aa	0.34782916
179	0x3e7f9710	0.2495997
180	0x3f1459bc	0.57949424
181	0xbe77d9f4	-0.24204236
182	0x3be1c180	0.006889522
183	0x3dbbdc70	0.091729045
184	0xbd335776	-0.04378458
185	0x3d39cf80	0.045363903
186	0xbcde098e	-0.027104165
187	0x3d9c23c6	0.07624011
188	0x3e28e65e	0.16494128
189	0x3e8caeac	0.27477014
190	0x3db49d8b	0.088191114
191	0x3eb728c7	0.35773298
192	0xbf02b674	-0.5105965
193	0xbea25105	-0.31702438
194	0x3e19420d	0.14966603
195	0xbd565e67	-0.052336123
196	0xbe062fae	-0.13104126
197	0x3cd7d924	0.026348658
198	0x3e83ff61	0.25780776
199	0xbde78f71	-0.11306656
200	0xbeb52d88	-0.353863
201	0xbf2ccd6b	-0.6750094
202	0xbe1cdba4	-0.15318161
203	0xbb2877fb	-0.002570628
204	0x3ea442a2	0.32082087
205	0xbe51ac91	-0.20475985
206	0xbeaa5678	-0.33269095
207	0xbdd96bc9	-0.106162615
208	0x3e0e8d92	0.13921192
209	0xbe7ae752	-0.24502304
210	0x3f0f5f4b	0.5600478
211	0xbd1a02ea	-0.037600435
212	0x3d001c88	0.03127721
213	0xbd937ac1	-0.07201148
214	0x3d019667	0.031637575
215	0x3ebba38e	0.3664822
216	0x3e898153	0.2685648
217	0xbe4b9e96	-0.19884714
218	0x3dacaba4	0.08431175
219	0xbc8f7382	-0.017511133
220	0x3dd269fe	0.10274123
221	0x3d625268	0.05525437
222	0x3d9804d1	0.07422794
223	0x3e3eb504	0.1862374
224	0x3e960ce4	0.2930671
225	0xbe74f461	-0.23921348
226	0x3e17dc39	0.14830102
227	0xbdbbb000	-0.09164429
228	0x3c2250bf	0.009906947
229	0xbca9bc70	-0.020719737
230	0xbe5aa9de	-0.21353862
231	0xbe871480	-0.26382828
232	0xbe057508	-0.13032925
233	0xbe2a2d7f	-0.16618918
234	0xbd7610a4	-0.060074463
235	0xbe7e014c	-0.24805182
236	0xbe5aba5d	-0.21360154
237	0x3ec8cf9c	0.39220893
238	0x3cf739f8	0.030179009
239	0x3e6b071b	0.2295193
240	0xbea4a313	-0.32155666
241	0x3d26e1c8	0.040742666
242	0xbd0519e4	-0.032495394
243	0xbc96c474	-0.018404223
244	0xbe739b88	-0.23789799
245	0x3eb09d6c	0.34495103
246	0x3d8ca4e7	0.0686739
247	0x3eb1ffcb	0.34765467
248	0xbe168e15	-0.14702637
249	0xbe621968	-0.22080004
250	0x3e1c20be	0.15246865
251	0xbe8b41fb	-0.27198777
252	0x3ee393c8	0.44448686
253	0x3e871074	0.2637974
254	0xbce1720e	-0.027520206
255	0xbeae7fc4	-0.34081852

network_body._body_endoder.seq_layers.0.bias f4 [128]
0	0xbcd9351a	-0.026514579
1	0xbcead2d8	-0.028664991
2	0xbc84989d	-0.016186053
3	0xbd23f321	-0.040026788
4	0x3d27fde1	0.041013602
5	0x3d8b9d13	0.06817069
6	0xbc3034c0	-0.010754764
7	0x3d221aa3	0.039576184
8	0x3d477a63	0.0487007
9	0x3bf86e90	0.0075815395
10	0x3c7aadbd	0.0153002115
11	0x3d060afe	0.032725327
12	0xbd3fb2e4	-0.046801463
13	0x3bb604f6	0.0055547906
14	0xbd14d32b	-0.036334198
15	0x3d80e18a	0.06293018
16	0xbd714bc2	-0.05891014
17	0x3d26bf62	0.04070986
18	0x3d4fa4f7	0.050694432
19	0xbc923b47	-0.017850531
20	0x3d282226	0.04104819
21	0x3ce81b1d	0.028333241
22	0x3cf2f470	0.029657573
23	0xbd5d3d6a	-0.054013647
24	0x3d650e75	0.05592199
25	0xbd7ffd76	-0.06249758
26	0xbc4bca6c	-0.012438398
27	0x3ae57101	0.0017504991
28	0xbdd47fce	-0.10375939
29	0x3da2ee83	0.07955649
30	0x3d9dd608	0.07706839
31	0xbd1b6905	-0.03794195
32	0xbd404daf	-0.046949085
33	0xbda4d743	-0.080488704
34	0xbd7553ee	-0.059894495
35	0x3da31025	0.07962064
36	0xbdc6d805	-0.09709171
37	0xbb152fa3	-0.002276399
38	0xbc4124b9	-0.0117885405
39	0x3a55e68b	0.0008159659
40	0x3c00cf76	0.007861963
41	0xbc7392f6	-0.014866581
42	0x3d43b44a	0.04777936
43	0x3d0f7f23	0.035033356
44	0x3cbe5fde	0.023239072
45	0x3cdb5c60	0.026777446
46	0x3c113af1	0.00886415
47	0xbd9286a0	-0.07154584
48	0x3cd99a9e	0.026562985
49	0xbac26d0d	-0.0014833525
50	0x3b2f28f9	0.0026727302
51	0xbb59dd0b	-0.0033243324
52	0x3d267af8	0.040644616
53	0x3d13c500	0.036076546
54	0xbd6daa72	-0.058023877
55	0x3dc68430	0.096931815
56	0x3d9aa2af	0.07550561
57	0xbb9d2144	-0.0047952253
58	0x3d00ba34	0.031427577
59	0xbb8f6191	-0.0043756445
60	0x3db04c8f	0.086083524
61	0x3d88e930	0.06685102
62	0x3d0a49c3	0.03376175
63	0x3d5f172e	0.054465465
64	0xbca762c3	-0.020432835
65	0x3d28a043	0.041168462
66	0x3bfba0c3	0.0076790764
67	0xb9e6e430	-0.00044039031
68	0x3c3ef1cc	0.011654329
69	0x3cc4b1ec	0.024010621
70	0xbbe44d71	-0.0069672395
71	0xbac83780	-0.0015275329
72	0xbc80ea8b	-0.015736839
73	0xbbda59a1	-0.0066635166
74	0xbb24db4e	-0.002515513
75	0xbcd352ae	-0.02579626
76	0xbaa20a9e	-0.0012362783
77	0x3c5692ad	0.013096494
78	0x3d6a90be	0.057266943
79	0x3d0a2339	0.033724997
80	0x3d857c81	0.06517888
81	0x3cebb9a9	0.028775053
82	0x3d0d4079	0.034485314
83	0x3d1ac1ce	0.037782483
84	0xbdb9c70a	-0.09071167
85	0x3c1ab314	0.00944211
86	0x3d30bb12	0.043147154
87	0xbcdab00a	-0.02669527
88	0x3d8f9596	0.07010953
89	0x3cdfad74	0.027304389
90	0x3d1e6805	0.03867342
91	0x3caff64c	0.021479748
92	0x3c441603	0.011968139
93	0x3c0d21ad	0.008613986
94	0xbd2d1ef9	-0.042265866
95	0xbc2adfca	-0.010429332
96	0x3ced5ef2	0.028975938
97	0x3c3dab54	0.011576492
98	0x3d4cd848	0.05001095
99	0xbd6d9261	-0.058000926
100	0x3d38b3e6	0.04509344
101	0xbd6d0fa1	-0.057876233
102	0xbce162de	-0.027512964
103	0x3c83fa6f	0.016110627
104	0xbcb0613f	-0.021530746
105	0x3d2f5429	0.04280487
106	0xbc7a68fc	-0.015283819
107	0x3bb3cac7	0.0054868194
108	0xbd950a71	-0.07277382
109	0xbc6817f2	-0.014165865
110	0xbdc6e3dc	-0.097114295
111	0x3d1a72b9	0.037707064
112	0x3dd0831e	0.101812586
113	0x3d5f5c14	0.054531172
114	0x3b9c88f3	0.004777068
115	0xbd33ea0e	-0.043924384
116	0xbd4a5066	-0.04939308
117	0xbc9d69c5	-0.019215474
118	0xbd5290b2	-0.051407523
119	0x3d62d2e6	0.05537691
120	0x3d05290f	0.03250986
121	0x3d93dcc1	0.0721984
122	0xbb5d2f37	-0.0033750066
123	0x3cb30778	0.021854147
124	0xbc0d3fcb	-0.008621166
125	0x3bc3b83b	0.0059728897
126	0xbc9ac759	-0.018893884
127	0xba017544	-0.00049384334

network_body._body_endoder.seq_layers.2.weight f4 [128, 128]
0	0xbe1ce8a5	-0.15323122
1	0x3d31e38c	0.043429896
2	0xbd8161c1	-0.06317473
3	0xbe6381d3	-0.22217493
4	0x3e77cea8	0.24199927
5	0xbd51254d	-0.051060963
6	0x3d83e8bd	0.06440876
7	0xbe446f09	-0.19182982
8	0x3be04626	0.0068443
9	0xbd86facb	-0.06590804
10	0xbe381918	-0.17978323
11	0x3e48fd31	0.19627835
12	0x3e31f69e	0.17379233
13	0xbd5e899d	-0.054330457
14	0xbcaf8794	-0.021426953
15	0x3dd86e92	0.105679646
16	0xbd214c55	-0.039379437
17	0x3cc80e44	0.024420865
18	0x3dad4c7f	0.08461856
19	0xbcf45ca1	-0.029829325
20	0xbe4fee91	-0.2030585
21	0x3e535cf4	0.20640928
22	0xbe7088ea	-0.23489729
23	0xbcd2cb46	-0.025731694
24	0x3ea289c1	0.31745723
25	0x3d5b6daa	0.05357138
26	0x3d52008b	0.05127005
27	0xbde388af	-0.11110055
28	0x3da15806	0.07878117
29	0xbe191a2e	-0.14951393
30	0x3db029bc	0.0860171
31	0x3d11f457	0.03563341
32	0xbc1c0202	-0.009521963
33	0x3c052699	0.008126878
34	0x3de3441e	0.11096977
35	0xbe075f1e	-0.13219878
36	0x3dc3836b	0.0954655
37	0xbd5c59bd	-0.05379652
38	0xbc65dd4e	-0.014029814
39	0xbe0191ac	-0.12653226
40	0xbcc34f47	-0.023841513
41	0x3da39180	0.07986736
42	0xbce133a4	-0.027490444
43	0xbd000d5d	-0.031262744
44	0x3df0a154	0.11749521
45	0xbd940c9e	-0.07228969
46	0x3d4f2a1a	0.05057726
47	0x3c4547ad	0.012041015
48	0x3d4c4ee2	0.049879916
49	0xbd7a6bd1	-0.061137978
50	0xbdd16153	-0.10223641
51	0xbe21d0e6	-0.15802345
52	0x3e219244	0.15778452
53	0x3cb6e9c5	0.022328267
54	0xbd0e6715	-0.034766275
55	0xbbe62cd1	-0.0070243855
56	0xbdcc7322	-0.09982897
57	0xbe345649	-0.1761104
58	0xbd838376	-0.064215586
59	0x3d3e17da	0.046409465
60	0x3a09b67a	0.00052533264
61	0x3cc108fc	0.023563854
62	0xbd515d48	-0.05111435
63	0x3e19358f	0.14961837
64	0x3d3577b2	0.044303603
65	0x3bc49db1	0.0060002436
66	0x3d18bc70	0.037289083
67	0x3c90c434	0.017671682
68	0xbe54da91	-0.20786501
69	0xbd48a0b7	-0.048981395
70	0x3d86342f	0.06552922
71	0xbd517378	-0.05113551
72	0xbe60b73b	-0.21944897
73	0x3dbbda1a	0.09172459
74	0x3bea99f1	0.0071594645
75	0x3df3c7f8	0.119033754
76	0x3ca12aa7	0.019673659
77	0x3e18e74e	0.14931986
78	0x3e1bffa4	0.15234238
79	0xbd2ee5fe	-0.042699806
80	0xbc2ef2c1	-0.010677994
81	0xbdae3a6f	-0.08507239
82	0xbcdb6eaa	-0.026786167
83	0x3ea59f08	0.32347894
84	0x3d3bf18a	0.045884646
85	0x3d26b118	0.040696234
86	0x3e0df53f	0.13863085
87	0x3e4ca4e7	0.1998478
88	0x3e1ff95d	0.15622468
89	0x3e276906	0.16348657
90	0xbb54cd6b	-0.0032471071
91	0xbdc9989e	-0.098435625
92	0xbd880825	-0.066421784
93	0xbaf1ca92	-0.0018447211
94	0x3e2274c5	0.15864857
95	0xbd942557	-0.072336845
96	0x3db479e0	0.08812308
97	0x3dccd0c6	0.10000758
98	0x3e53d2c7	0.20685874
99	0x3dc283cf	0.09497797
100	0x3c9845d8	0.018587992
101	0x3e4ed953	0.2020009
102	0x3d1c78a6	0.038200997
103	0xbd3176a6	-0.043326043
104	0x3d5217a1	0.051292066
105	0x3d09f16c	0.033677503
106	0xbdb4ebe2	-0.088340536
107	0x3d438674	0.047735646
108	0xbd49db21	-0.049281243
109	0x3e0a1fe4	0.13488728
110	0x3d7f86e2	0.062384494
111	0xbcd49b61	-0.025952997
112	0xbd12870c	-0.035773322
113	0xbeb20835	-0.34771886
114	0xbdb9aa94	-0.09065738
115	0xbc46c3d6	-0.012131652
116	0x3d89310f	0.0669881
117	0x3db522de	0.08844541
118	0xbd9fac66	-0.07796554
119	0x3dd4502a	0.103668526
120	0x3dd2063f	0.102550976
121	0xbd2a000f	-0.041503962
122	0x3d83b539	0.0643105
123	0x3e11684f	0.14199947
124	0xbe345787	-0.17611514
125	0x3d9d8d86	0.07693009
126	0xbcc385fc	-0.0238676
127	0xbd1dd750	-0.038535416
128	0xbc72cabc	-0.014818843
129	0xbe2d6be3	-0.16935687
130	0xbdcf43c2	-0.10120346
131	0x3e01d7c2	0.12679961
132	0xbc634bb7	-0.013873032
133	0xbda9669d	-0.08271525
134	0xbda58256	-0.080815
135	0x3dd7291b	0.10505887
136	0x3d80673c	0.062696904
137	0x3c673873	0.01411258
138	0x3d711140	0.05885434
139	0x3e80fab4	0.2519127
140	0xbdaba709	-0.08381469
141	0x3dc005c7	0.09376102
142	0xbe04f3c8	-0.1298362
143	0xbda4aaa4	-0.080403596
144	0xbe917475	-0.28409162
145	0xbcc02bf7	-0.023458464
146	0xbc667805	-0.014066701
147	0xbd5210ac	-0.05128543
148	0xbd988fe7	-0.07449322
149	0x3d76fbd5	0.06029876
150	0x3de80481	0.11328984
151	0x3d16994f	0.0367673
152	0xbe34e47f	-0.1766529
153	0x3dded2f4	0.1088008
154	0x3cc878c7	0.024471654
155	0x3de3f8fe	0.11131476
156	0x3e0f7c88	0.14012349
157	0x3d868806	0.06568913
158	0x3b1c95c1	0.0023892971
159	0xbc3eeea7	-0.011653579
160	0xbe84c737	-0.2593324
161	0x3d12957d	0.035787094
162	0x3e809e7c	0.25120914
163	0xbd98bff9	-0.07458491
164	0xbcaec622	-0.021334711
165	0xbd891721	-0.066938646
166	0x3d686454	0.056736305
167	0xbcf0623a	-0.029343713
168	0xbddb5f0e	-0.107114896
169	0xbd969fd8	-0.073547065
170	0x3dda00a0	0.106446505
171	0xbdb408c9	-0.08790738
172	0xbe426fa0	-0.18987894
173	0x3e2f768e	0.17135069
174	0xbd607b65	-0.05480518
175	0x3de5d6d2	0.11222614
176	0xbe17cf7b	-0.14825241
177	0x3e15fcd1	0.14647223
178	0xbc02a8b9	-0.007974797
179	0x3d3fbeab	0.046812695
180	0xbdee5792	-0.116377965
181	0x3e01fca5	0.12694032
182	0x3dd9be4f	0.106320016
183	0x3e33c00a	0.17553726
184	0x3d05bbc5	0.032649774
185	0x3da04c5c	0.078270644
186	0xbda585d1	-0.08082164
187	0xbd887a46	-0.06663947
188	0x3e560950	0.2090199
189	0x3cfa9e24	0.030592985
190	0xbe316445	-0.17323406
191	0x3dddc1d1	0.10827983
192	0xbd97aefd	-0.07406423
193	0x3de31dc1	0.110896595
194	0xbc16b9de	-0.009199588
195	0x3e10975e	0.14120242
196	0x3b52889c	0.0032124883
197	0x3da52dee	0.08065401
198	0x3de3dbe6	0.11125927
199	0x3de37767	0.111067586
200	0x3dc23e23	0.09484508
201	0x3d72816e	0.059205465
202	0x3d2c6846	0.04209163
203	0x3d2c7821	0.04210675
204	0x3b669216	0.003518229
205	0xbb0e6d32	-0.0021732566
206	0x3bdb1b17	0.006686579
207	0xbd8c3002	-0.06845094
208	0x3e496238	0.19666374
209	0xbdd5f614	-0.10447326
210	0xbd39bc7e	-0.045345776
211	0xbdba9856	-0.09111087
212	0xbc37e9a0	-0.011225134
213	0x3e0dc99a	0.13846436
214	0x3ddfb2a3	0.10922744
215	0xbcbc9b9c	-0.02302342
216	0x3db26ff7	0.08712762
217	0xbe2482b7	-0.16065489
218	0xbe46d332	-0.19416502
219	0xbd4cec2a	-0.05002991
220	0xbd90f004	-0.07077029
221	0xbe05e419	-0.13075294
222	0xbdee1f16	-0.11627023
223	0x3c716788	0.014734156
224	0x3de176d0	0.1100899
225	0xbddf554f	-0.10904943
226	0xbd542294	-0.05179079
227	0x3dd8769d	0.10569499
228	0xbd439650	-0.04775077
229	0xbd70b87e	-0.058769695
230	0xbc7ba087	-0.015358097
231	0xbc8b6cce	-0.017019656
232	0xbe0e5b8b	-0.13902108
233	0xbe5bc02a	-0.21460024
234	0xbc931b40	-0.01795733
235	0x3ddebe77	0.10876172
236	0xbc8e240b	-0.017351171
237	0xbe113393	-0.1417983
238	0xbe382e58	-0.17986429
239	0xbda39dbf	-0.07989072
240	0xbd922211	-0.07135404
241	0x3d2118db	0.039330345
242	0xbe137187	-0.14398776
243	0x3d882867	0.06648331
244	0xbe0c07c6	-0.1367484
245	0x3d8dd9cd	0.06926308
246	0xbde14dd8	-0.11001176
247	0xbe0ad351	-0.13557173
248	0xbe409dbc	-0.18810171
249	0xbdf88c47	-0.12136131
250	0x3cd04064	0.025421329
251	0xbdfabf3c	-0.12243506
252	0x3dd718b6	0.1050276
253	0x396df634	0.00022693799
254	0x3cb59807	0.022167219
255	0xbd535db5	-0.051603038

network_body._body_endoder.seq_layers.2.bias f4 [128]
0	0x3cd8b56d	0.026453698
1	0xbc8747ae	-0.016513672
2	0xbc3385e1	-0.010957212
3	0x3d84cda2	0.06484534
4	0x3d435dcf	0.047696885
5	0x3cd2a03d	0.025711173
6	0x3cb0bc06	0.021574032
7	0x3d24c362	0.040225394
8	0x3cda9376	0.026681643
9	0xbc00a17f	-0.007851004
10	0x3ce11c01	0.027479174
11	0xbb8cf8f5	-0.004302139
12	0xbc88c475	-0.01669524
13	0x3ccc495f	0.02493733
14	0xbc2e6813	-0.01064493
15	0x3c627c0d	0.013823521
16	0x3cf08d61	0.02936429
17	0x3d05861a	0.032598592
18	0x3c8b46f0	0.0170016
19	0xba63bcf4	-0.0008687519
20	0xbc1c6026	-0.009544408
21	0xbcf37431	-0.02971849
22	0x3cbf4db8	0.023352489
23	0xba3d8b6a	-0.0007230552
24	0xbb424094	-0.0029640542
25	0x3cc3bf17	0.02389483
26	0x3bacf6a8	0.005278427
27	0xbc500b74	-0.012698043
28	0xbd166908	-0.03672126
29	0x3d3ed681	0.046591286
30	0x3a1fe119	0.0006098911
31	0x3c9a7a2d	0.018857086
32	0xbcda66aa	-0.026660282
33	0x3b82dacb	0.0039933673
34	0x3ba6e404	0.0050930995
35	0x3bb1df01	0.0054281955
36	0x3c897067	0.01677723
37	0x3d36b37c	0.044604763
38	0xbc669124	-0.01407269
39	0xbb2cccbf	-0.0026367155
40	0x3c7fa981	0.015604378
41	0x3cdbbedf	0.026824413
42	0x3aec6e8e	0.0018038319
43	0x3afc217e	0.0019236056
44	0x3d44c9fe	0.048044197
45	0x3d52cfe9	0.05146781
46	0xbc307e96	-0.010772368
47	0x3c4a3d5a	0.012343729
48	0xbc56f8e4	-0.013120864
49	0x3cd3a375	0.025834778
50	0x3c583b70	0.013197765
51	0x3c873724	0.016505785
52	0xbc40cbba	-0.011767322
53	0x3c9a7599	0.018854903
54	0x3cdc8a33	0.026921367
55	0x3c3a798d	0.011381519
56	0x3b76d2f4	0.003766236
57	0x3b23ade2	0.0024975468
58	0x3cd67452	0.026178513
59	0xbc5b3993	-0.013380426
60	0x3af87555	0.0018955866
61	0xbc150319	-0.009094977
62	0xbc821f42	-0.015884046
63	0xbbf1a3a0	-0.007374242
64	0x3d5ba4e8	0.053624064
65	0x3d0fdb53	0.035121273
66	0xbb1efc54	-0.0024259286
67	0x3cabc1ed	0.020966494
68	0xbcaa0800	-0.020755768
69	0xbcbb57ed	-0.022869075
70	0xbbaa4770	-0.0051965043
71	0xbbc7f99f	-0.006102755
72	0xbc0dc0b7	-0.008651904
73	0x3cff3be0	0.03115648
74	0xbc9a823e	-0.018860932
75	0x3c98193d	0.018566722
76	0x3cfce505	0.030870924
77	0x3bd90a08	0.0066235103
78	0xbbade811	-0.0053072055
79	0xbc1fdf48	-0.009757824
80	0x3d10f904	0.03539373
81	0x3c365b46	0.01113016
82	0xbb94a287	-0.0045359763
83	0x3c994c56	0.018713158
84	0x3cd62921	0.026142659
85	0xbb2181e3	-0.002464407
86	0xba9aa8bf	-0.0011799558
87	0xbc493a6c	-0.012281995
88	0x3ba4fbbd	0.0050348924
89	0x3c983c89	0.018583553
90	0x3c6affac	0.0143431835
91	0x3d2a22c9	0.04153708
92	0x3cb6538f	0.02225664
93	0x3c836939	0.016041385
94	0xbc49aa05	-0.012308602
95	0x3d0042d7	0.031313743
96	0x3caec528	0.021334246
97	0x3cae0b0e	0.021245506
98	0x3badcb01	0.005303741
99	0xbb11bb86	-0.0022237017
100	0x3c2108d7	0.009828768
101	0x3ca1550f	0.01969388
102	0x3d0ee23c	0.034883723
103	0x3c4a2607	0.012338168
104	0x3d1715a1	0.03688586
105	0x3d6e2528	0.058140904
106	0xbc91b041	-0.01778424
107	0x3d505230	0.05085963
108	0x3c93cd60	0.018042266
109	0x3cba4499	0.022737788
110	0xbbc9cbf0	-0.0061583444
111	0x3cd4df5b	0.02598541
112	0x3c01b849	0.007917472
113	0x3c5dcde7	0.0135378605
114	0x3bc13251	0.0058958908
115	0x3d3dbb3a	0.04632113
116	0x3c256342	0.010094466
117	0xbbf1d84a	-0.00738052
118	0x3c872357	0.016496344
119	0xbcce2f4b	-0.025169035
120	0x3d98b27a	0.07455917
121	0xba3c2e53	-0.00071785337
122	0x3a9a3c22	0.0011767189
123	0xbc860b38	-0.016362771
124	0x3ba0f08d	0.0049114884
125	0x3ce12682	0.027484182
126	0xbcd6c568	-0.026217178
127	0x3aa8c456	0.0012875895

network_body._body_endoder.seq_layers.4.weight f4 [128, 128]
0	0xbde4faf4	-0.11180678
1	0xbd3fe5a2	-0.046849854
2	0xbd2de1dd	-0.042451728
3	0x3daafc34	0.08348885
4	0xbd04b72b	-0.032401245
5	0x3de15e64	0.11004332
6	0xbc9839d8	-0.01858227
7	0xbe6800c2	-0.22656539
8	0x3d8a8e65	0.06765441
9	0x3e1e9520	0.15486574
10	0x3d6bf1fc	0.05760382
11	0x3d366413	0.044529032
12	0xbd1a2f60	-0.037642837
13	0x3e087f3d	0.13329788
14	0xbe3a6254	-0.18201572
15	0xbc1ffedc	-0.009765353
16	0x3dc45633	0.09586754
17	0xbd59ace1	-0.053143386
18	0xbcb85165	-0.02249975
19	0x3cf2f24f	0.029656557
20	0xbdfc6154	-0.12323251
21	0x3de36ec6	0.11105113
22	0x3e038e2c	0.12847203
23	0xbde28102	-0.110597625
24	0xbcec353a	-0.028833974
25	0xbce83954	-0.028347649
26	0x3e0425ec	0.12905091
27	0xbc0bd710	-0.008535162
28	0x3d204cc4	0.03913571
29	0x3d824267	0.063603215
30	0x3d2008b1	0.03907079
31	0xbd80babf	-0.06285619
32	0x3d845b79	0.064627595
33	0x3d7f44c1	0.06232143
34	0xbb3838d5	-0.0028110046
35	0xb88d026e	-6.7238565e-05
36	0x3e159c83	0.14610486
37	0x3dc845b6	0.09778921
38	0x3e2fc170	0.17163634
39	0xbd92e312	-0.071722165
40	0x3d9b323c	0.07577941
41	0xbda20b0c	-0.07912263
42	0xbe393335	-0.1808594
43	0xbdd70346	-0.10498671
44	0x3d15f40c	0.036609694
45	0x3e2f8b16	0.17142901
46	0x3d41b1f8	0.047288865
47	0x3bf84eb4	0.0075777415
48	0x3d577596	0.052602373
49	0x3d479a57	0.048731174
50	0xbd6a38d8	-0.057183117
51	0xbe34207a	-0.17590514
52	0xbd1c52cc	-0.0381649
53	0x3b866de7	0.004102457
54	0xbd8e9e06	-0.06963734
55	0xbb30df47	-0.0026988552
56	0xbddcedcf	-0.10787546
57	0xbe6d8f04	-0.23199087
58	0xbdd81dc1	-0.1055255
59	0xbe10d808	-0.1414491
60	0xbcf13ca6	-0.029447865
61	0x3daac3fd	0.08338163
62	0x3e5464d7	0.20741592
63	0xbe428f8b	-0.1900007
64	0xbc079e01	-0.008277417
65	0xbce5153b	-0.027964225
66	0x3dc1e026	0.09466581
67	0xbd4ae6aa	-0.049536385
68	0xbd9aa935	-0.07551805
69	0x3db05cef	0.08611476
70	0x3d74542b	0.05965058
71	0xbd936879	-0.07197661
72	0xbd3f4e25	-0.046705384
73	0x3dc242c5	0.094853915
74	0xbe08772a	-0.13326707
75	0x3c09f2a1	0.008419664
76	0x3dbf2395	0.093329586
77	0xbdbf064e	-0.093273744
78	0x3e15085e	0.14553973
79	0xbdb11405	-0.086463965
80	0x3e3663a0	0.17811441
81	0xbdce02c6	-0.10059123
82	0xbe0c3f34	-0.13695985
83	0x3d864793	0.065566204
84	0xbe5efd79	-0.2177638
85	0xbdb31393	-0.08743968
86	0xbdd13750	-0.10215628
87	0xbd961b2b	-0.07329401
88	0xbbeb790f	-0.007186062
89	0xbd44de61	-0.04806364
90	0x3d2cba85	0.042170066
91	0x3dfcb96d	0.12340055
92	0xbb719724	-0.0036863768
93	0xbe10abe6	-0.14128074
94	0xbdbe09ee	-0.09279238
95	0xbc9d4e6f	-0.01920244
96	0x3d9b1325	0.07572011
97	0xbd439d66	-0.04775753
98	0x3d6abbad	0.057307888
99	0xbe002b6b	-0.12516563
100	0xbbf419a5	-0.007449346
101	0x3d9db91a	0.07701321
102	0x3d8df332	0.069311514
103	0x3cc6d624	0.024272032
104	0xbb980947	-0.004639778
105	0xbbb04761	-0.005379603
106	0x3d7d2107	0.061799075
107	0x3df1a8a5	0.117997445
108	0x3d565d8d	0.05233531
109	0x3e2f772d	0.17135306
110	0x3deb4a08	0.1148873
111	0x3e127f0a	0.14306274
112	0x3d1d20e5	0.03836145
113	0xbdb73433	-0.08945503
114	0xbdbc19db	-0.09184619
115	0x3dae1d34	0.08501664
116	0x3e2d2be4	0.16911274
117	0xbd2e0bdc	-0.04249178
118	0x3d837813	0.06419387
119	0xbdab3946	-0.083605334
120	0x3dbbf134	0.09176865
121	0xbd852b43	-0.06502392
122	0xbd105890	-0.03524071
123	0xbdd7a717	-0.10529917
124	0x3d3f2c48	0.04667309
125	0xbd598ea5	-0.053114552
126	0x3e0caf48	0.1373874
127	0xbb6e1400	-0.003632784
128	0x3e01edb8	0.12688339
129	0x3d8e9b83	0.06963255
130	0x3da0e129	0.07855446
131	0xbd90a59c	-0.070628375
132	0xbd9cfa0d	-0.07664881
133	0xbde7e5b7	-0.113231115
134	0x3cba77f5	0.022762278
135	0xbdb0a8f8	-0.08625978
136	0xbe1fae77	-0.15593897
137	0x3d8b4ebf	0.06802129
138	0xbe96463b	-0.29350457
139	0x3d290be0	0.04127109
140	0x3bf57749	0.0074910265
141	0x3a80b763	0.0009820279
142	0x3d927161	0.071505316
143	0xbcd082ee	-0.025453057
144	0xbe0aa206	-0.1353837
145	0xbe0216c4	-0.12703997
146	0xbde62a5a	-0.11238547
147	0xbd7e85e2	-0.0621394
148	0x3d860436	0.06543772
149	0xbd120294	-0.03564699
150	0xbe1540d8	-0.14575517
151	0x3d3d72d9	0.046252105
152	0xbc929281	-0.017892124
153	0xbe0fd952	-0.14047745
154	0x3dbb9b6d	0.091605045
155	0x3dd926a5	0.10603074
156	0xbca37376	-0.019952517
157	0xbe853871	-0.26019624
158	0xbe1b11e5	-0.15143545
159	0xbd706fa4	-0.05870022
160	0x3bb78300	0.005600333
161	0xbdb36323	-0.08759143
162	0xbd8de82e	-0.069290504
163	0x3db2ca67	0.087300114
164	0xbd9128b9	-0.07087845
165	0xbde0c37b	-0.10974785
166	0x3d8bfc73	0.0683526
167	0x3bf7062c	0.0075385775
168	0xbcc4ce1a	-0.024024058
169	0x3e1f3b89	0.15550055
170	0x3cbcbe3c	0.02303993
171	0x3d6b25f6	0.05740925
172	0xbe0fbf2b	-0.14037769
173	0xbdde606a	-0.10858233
174	0xbdd2a7ae	-0.102858886
175	0x3da6d6a3	0.081464075
176	0xbd061dd2	-0.032743283
177	0xbe542bb4	-0.20719796
178	0x3d9ba6f4	0.07600203
179	0xbc73f7c8	-0.014890619
180	0x3da69bf2	0.08135213
181	0x3d999638	0.07499355
182	0xbdf5ed72	-0.1200818
183	0x3cabc882	0.020969633
184	0xbd83f6aa	-0.06443532
185	0x3e107b3e	0.14109513
186	0x3d06096f	0.03272384
187	0xbc58a322	-0.013222488
188	0x3c92d7c0	0.017925143
189	0xbcfeeaa9	-0.031117754
190	0x3cd498c8	0.025951758
191	0x3e19bb23	0.15012793
192	0xbdb64a4d	-0.089008905
193	0x3d9db75b	0.07700988
194	0x3e2e3e47	0.17015944
195	0xbd5550e6	-0.052079104
196	0xbdea832d	-0.11450801
197	0x3e327212	0.17426327
198	0xbc117422	-0.008877786
199	0x3dea13b0	0.11429536
200	0xbd5c49ad	-0.0537812
201	0xbd6338fd	-0.05547427
202	0x3b644d54	0.003483613
203	0x3c84ebb4	0.016225673
204	0xbe170198	-0.14746702
205	0xbd75f94f	-0.060052212
206	0xbcd35b34	-0.025800325
207	0x3d908a8d	0.070576765
208	0x3d89e48f	0.06733047
209	0x3e055cc2	0.13023666
210	0xbd6de02b	-0.05807511
211	0x3d096d10	0.033551276
212	0x3b1dcdca	0.0024078959
213	0x3dea758e	0.11448203
214	0x3c0dee4f	0.008662774
215	0x3dc6e439	0.09711499
216	0x3e0d8326	0.1381956
217	0xbcabbbb9	-0.020963537
218	0x3d19d9a6	0.03756108
219	0xbe26ad26	-0.16276988
220	0xbe7c3683	-0.2463017
221	0xbc8ed378	-0.01743482
222	0x3e11f667	0.14254151
223	0xbe017d07	-0.1264535
224	0xbe281264	-0.16413265
225	0xbd423d9b	-0.047422033
226	0x3d721d21	0.05910981
227	0x3d198348	0.037478715
228	0x3d900816	0.07032792
229	0xbddaba84	-0.10680106
230	0xbe6e0590	-0.2324431
231	0x3e10337f	0.14082144
232	0xbdaf4585	-0.08558182
233	0xbd814355	-0.06311671
234	0x3dc57f14	0.09643379
235	0xbc909970	-0.01765129
236	0xbdb9c739	-0.09071202
237	0x3d516002	0.05111695
238	0xbe4269fe	-0.18985745
239	0xbe1c5337	-0.15266119
240	0xbd9a6d22	-0.07540347
241	0x3da4e2a5	0.080510415
242	0xbd2c1884	-0.042015567
243	0xbe852e5a	-0.26011926
244	0xbe411c45	-0.1885844
245	0x3d62da74	0.055384114
246	0xbd484a27	-0.048898842
247	0xbdbc0602	-0.091808334
248	0x3e09708b	0.13421838
249	0x3b2e45f2	0.0026591984
250	0xbcfb9fcf	-0.030715851
251	0xbd527c3a	-0.051388003
252	0xbdd45227	-0.10367232
253	0xbe4ba509	-0.19887175
254	0x3d0d5ac8	0.034510404
255	0x3e1cc1c8	0.15308297

network_body._body_endoder.seq_layers.4.bias f4 [128]
0	0x3d0d3f29	0.034484062
1	0x3c1a28c0	0.00940913
2	0x3ca49d0d	0.020094419
3	0xbc4ba712	-0.012429969
4	0x3b9dc442	0.0048146555
5	0xbb1cfd80	-0.0023954809
6	0x3d20a5eb	0.03922073
7	0x3c90ee57	0.017691774
8	0xbb44efeb	-0.0030050229
9	0xb983c5eb	-0.00025133727
10	0x3cdef114	0.027214564
11	0x3d373937	0.0447323
12	0x3a89700d	0.0010485664
13	0xbc61102e	-0.013736768
14	0xbd308809	-0.043098483
15	0xbcb3696d	-0.021900857
16	0xbc5e79e2	-0.013578864
17	0x3d2255c2	0.039632566
18	0x3baf3c71	0.0053477813
19	0x39f0ea1e	0.00045950798
20	0x3c9c01dc	0.019043855
21	0x3c18e957	0.009332976
22	0x3cc2ad58	0.023764297
23	0x3c1ecc1a	0.009692216
24	0x3cbbdfe4	0.022933908
25	0x3c09bf58	0.008407436
26	0xbc461962	-0.012091013
27	0x3c7a9fc6	0.015296882
28	0x3caccf51	0.02109495
29	0xbd163bf8	-0.036678284
30	0xbb93e757	-0.004513662
31	0x3c1fdba0	0.0097569525
32	0x3c935a08	0.017987266
33	0x3b806ce5	0.0039192312
34	0x3c643347	0.013928241
35	0x3cbb7e50	0.022887379
36	0xbb1c8aed	-0.0023886517
37	0x3c243cf2	0.010024296
38	0x3bdbdf3e	0.006709962
39	0xbc198426	-0.009369886
40	0x3c7063af	0.014672204
41	0x3a544fb4	0.0008099035
42	0x3c7090ec	0.01468299
43	0xbc44d706	-0.012014156
44	0x3b995dd5	0.004680375
45	0x3c59d2d6	0.013294896
46	0x3b6b55b0	0.0035909228
47	0xbbabb0d8	-0.0052395873
48	0x3b976630	0.004620336
49	0x3b988c38	0.0046553873
50	0xbc400072	-0.011718856
51	0x3c73dea8	0.014884628
52	0xba67d978	-0.0008844356
53	0xbba2f5a6	-0.004973131
54	0x3cc9d9e7	0.024640037
55	0xbb3ebf79	-0.0029105826
56	0xbbb03a73	-0.0053780614
57	0x3c488086	0.012237674
58	0x3c966335	0.018357852
59	0xbc472354	-0.012154419
60	0xbd2bdcc8	-0.0419586
61	0xbcd35a52	-0.025799904
62	0xbac1074e	-0.0014726908
63	0x3c0cd8fc	0.008596655
64	0xbbbd95dc	-0.005785687
65	0xbbd957aa	-0.006632765
66	0x3d45cd75	0.048291642
67	0xba27d661	-0.00064024894
68	0x3cd76538	0.026293382
69	0x3bea67d3	0.00715349
70	0xbba2e903	-0.004971625
71	0x3ca25f17	0.019820733
72	0xbc4f3e0f	-0.012649073
73	0x3c9f77b6	0.019466262
74	0x3d0a2058	0.03372225
75	0x3bbd32c0	0.005773872
76	0xbbbb203d	-0.00571063
77	0xbc386517	-0.01125457
78	0xbc7261e4	-0.014793847
79	0xb9b49aa0	-0.0003444748
80	0x3cdbb989	0.026821868
81	0x3c8aae72	0.016928885
82	0xbc935b77	-0.01798795
83	0x3bf4f41d	0.0074753896
84	0x3c5c1741	0.013433279
85	0xbbba6c01	-0.0056891446
86	0x3ba2b1db	0.0049650497
87	0x3bd0cc65	0.006372022
88	0x3b5eafb4	0.003397924
89	0xbbed81c9	-0.0072481376
90	0x3d0cfdf1	0.034421865
91	0xbc23fbe5	-0.010008787
92	0xbb9114e6	-0.00442754
93	0x3aa77ba6	0.0012777939
94	0xbc22fa38	-0.009947352
95	0x3a736ae6	0.00092856435
96	0x3ca3f700	0.02001524
97	0xbbe76c78	-0.007062491
98	0xbc81c54e	-0.015841153
99	0x3b7cd42c	0.0038578613
100	0x3cceb680	0.025233507
101	0x3b1d85cd	0.002403605
102	0xbbc88358	-0.006119173
103	0x3cc30ec1	0.023810746
104	0x3c903a1e	0.017605837
105	0xbae0a771	-0.0017139745
106	0x3a8bfed6	0.0010680805
107	0xbc03c230	-0.008041903
108	0xbaf3ec08	-0.0018609772
109	0xbc11c068	-0.008895971
110	0xbb9f3c97	-0.004859518
111	0x3c2a83f6	0.0104074385
112	0xbc063fcc	-0.008193921
113	0x3c0ada74	0.008474935
114	0xbb8d1c80	-0.004306376
115	0x3b447125	0.0029974666
116	0xbc3ecd0f	-0.0116455695
117	0x3c92c9c2	0.017918471
118	0xbc2a2bd5	-0.010386427
119	0x3b4da227	0.0031377168
120	0xbb1e7e01	-0.002418399
121	0x3c33d0a6	0.010975039
122	0xbb432598	-0.0029777046
123	0xbb5aa7d7	-0.00333642
124	0x3b43832d	0.0029832826
125	0xbc2d9bd8	-0.010596238
126	0xbb2d54a2	-0.002644815
127	0x3c8eed7f	0.017447231

action_model._discrete_distribution.branches.0.weight f4 [2, 128]
0	0x3c94af4c	0.018149994
1	0xbd3f746a	-0.04674188
2	0x3d1f6c54	0.03892167
3	0xbd3f4de2	-0.046705134
4	0xbd575853	-0.052574467
5	0xbb6d8cd8	-0.003624728
6	0x3aaf2313	0.0013361893
7	0x3d4ee38f	0.050509986
8	0xbc81df64	-0.015853591
9	0xba46a05c	-0.0007576996
10	0x3d58d65a	0.052938797
11	0x3d4f0192	0.050538607
12	0xbd844616	-0.0645868
13	0xbd492849	-0.049110685
14	0x3b30e446	0.002699153
15	0xbcc76103	-0.024338251
16	0xbd06755e	-0.032826774
17	0x3d22048e	0.039555125
18	0x3c7e2fd9	0.015514337
19	0xbd736408	-0.05942157
20	0x3b16dc57	0.0023019516
21	0x3ce3db43	0.027814513
22	0x3d026588	0.03183511
23	0x3cee79c5	0.029110799
24	0xba0ba57b	-0.0005327088
25	0x3cec4c7a	0.02884506
26	0xbd353934	-0.044244006
27	0x3d1e2f2a	0.038619198
28	0x3cce5151	0.025185259
29	0xbc4b50cb	-0.012409399
30	0xbd15a435	-0.036533553
31	0x3d083d55	0.033261616
32	0x3d32b7bb	0.04363225
33	0xbd7a0d08	-0.061047584
34	0xbc0a65b6	-0.008447101
35	0x3d19e1fc	0.03756903
36	0xbd6eb788	-0.058280498
37	0xbd89fc9b	-0.06737634
38	0x3d1d50e0	0.038407207
39	0x3bcee266	0.00631361
40	0x3d2953b4	0.04133959
41	0xbd8aa951	-0.06770576
42	0x3c97ba2f	0.018521396
43	0x3a373d2d	0.0006990012
44	0xbd9f68df	-0.077836744
45	0x3cfe9c90	0.031080514
46	0x3c856d27	0.0162874
47	0xbcc35ac3	-0.02384699
48	0xbd8e9510	-0.06962025
49	0xbc081b9d	-0.008307365
50	0xbd296fcb	-0.04136638
51	0xbc41e094	-0.011833329
52	0xbd8116cf	-0.063031785
53	0xbd524d9b	-0.05134354
54	0x3b0a19cf	0.0021072512
55	0xbd4e5511	-0.050374094
56	0xbce37cbc	-0.027769439
57	0x3b32d05e	0.002728484
58	0x3c966934	0.018360712
59	0xbd46612b	-0.04843251
60	0xbbea8af3	-0.0071576773
61	0xbbf187fb	-0.0073709465
62	0xbd63a890	-0.055580676
63	0x3d1d7b4b	0.03844766
64	0x3b3243ce	0.002720106
65	0xbbfc062a	-0.0076911645
66	0x3d774fb5	0.06037875
67	0xbd9de602	-0.07709886
68	0x3d01b14d	0.031663228
69	0xbd55aec8	-0.052168638
70	0xbc53941c	-0.01291373
71	0x3b7a7fd4	0.0038223164
72	0xbb04d4e0	-0.0020268485
73	0x3c09a5fe	0.008401392
74	0x3d401275	0.046892602
75	0x3d1fd87c	0.039024815
76	0x3b9d0587	0.0047919187
77	0xbd205dfa	-0.039152123
78	0xbbf80618	-0.007569086
79	0xbd375492	-0.044758387
80	0x3d199b89	0.037501846
81	0xbd11d69b	-0.035605054
82	0x396e53ec	0.00022728712
83	0x3ac58de2	0.0015072192
84	0x3d662f3f	0.0561974
85	0x3c04c647	0.008103914
86	0xbd7e82ad	-0.06213634
87	0xbd296e25	-0.041364808
88	0xbcad7f13	-0.021178758
89	0xbd57304b	-0.05253629
90	0x3d16bf1a	0.036803342
91	0xbcefe8ee	-0.029285874
92	0x3b2f1aa0	0.002671875
93	0xbd44db37	-0.048060622
94	0xbd3fd4a0	-0.046833634
95	0xbd37b183	-0.044847023
96	0xbaedb2c6	-0.0018134944
97	0xbd48e816	-0.04904946
98	0xbcaf7210	-0.021416694
99	0xbd0d7245	-0.034532804
100	0xbc1fce9d	-0.00975385
101	0xbcc702eb	-0.024293384
102	0xbd58513e	-0.052811854
103	0x3d869a24	0.06572369
104	0x3cc206d0	0.02368489
105	0xba9b7f66	-0.0011863529
106	0xbda64479	-0.08118529
107	0xbd8e4d5b	-0.06948348
108	0xbd4bf0ff	-0.04979038
109	0xbd1e4dd4	-0.03864844
110	0xbd33d6a4	-0.04390587
111	0xbd6bc711	-0.05756289
112	0xbd6be6ea	-0.057593264
113	0xbd900dab	-0.07033857
114	0xbd7c2f70	-0.061568677
115	0xbb9ea667	-0.004841614
116	0xbc532d99	-0.012889289
117	0x3d2f2133	0.04275627
118	0x38c5921b	9.420906e-05
119	0xbc1f0179	-0.009704941
120	0xbd3cb72b	-0.04607312
121	0x3d092c76	0.033489667
122	0xbda4c6f5	-0.080457605
123	0xbd698ea3	-0.057020795
124	0xbd892ee7	-0.06698399
125	0x3c61ae81	0.013774515
126	0xbd5d66f5	-0.054053266
127	0x3cdd826b	0.027039727
128	0xbc893acd	-0.016751671
129	0x3d4af377	0.049548592
130	0xbd239f57	-0.03994688
131	0x3d53561c	0.051595792
132	0x3d816a5f	0.06319117
133	0x3bb5b0b5	0.0055447468
134	0x3bb1285a	0.0054064216
135	0xbd179822	-0.03701032
136	0xbc3b39d1	-0.011427359
137	0xbbe16d39	-0.0068794754
138	0xbcea71c6	-0.028618705
139	0xbd329995	-0.0436035
140	0x3d614567	0.054997828
141	0x3d0e46ad	0.03473537
142	0xbbbf95f3	-0.0058467328
143	0x3caf0687	0.021365417
144	0x3c9b067d	0.018923992
145	0xbd244182	-0.040101536
146	0xbd329f98	-0.04360923
147	0x3d865c7d	0.065606095
148	0x3ae8763f	0.0017735435
149	0xbcc8567f	-0.024455307
150	0xbc81436c	-0.01577922
151	0xbc8f7e49	-0.017516272
152	0x3a0bb01c	0.00053286715
153	0xbca53360	-0.0201661
154	0x3d4d06bc	0.05005525
155	0xbd1acd4d	-0.037793446
156	0xbd149450	-0.036274254
157	0x3bcc1078	0.006227549
158	0x3d0a8273	0.033815812
159	0xbcca4a93	-0.024693763
160	0xbcf37e53	-0.029723322
161	0x3d7f78ed	0.062371183
162	0xbc12976e	-0.008947236
163	0xbd240876	-0.04004713
164	0x3d57c356	0.05267652
165	0x3d886619	0.066600986
166	0xbcd64627	-0.026156498
167	0x3bcc13f1	0.006227963
168	0xbd1a76d9	-0.037711
169	0x3d86ca40	0.06581545
170	0xbcd44810	-0.025913268
171	0x3ba49190	0.005022235
172	0x3d8c1464	0.06839827
173	0xbcdaaac6	-0.02669276
174	0xba11ed73	-0.0005566694
175	0x3cf19a0d	0.029492402
176	0x3d91e727	0.07124167
177	0xbb16c65c	-0.0023006415
178	0x3d5ccbba	0.053905226
179	0xba947f2d	-0.0011329405
180	0x3d808b83	0.0627661
181	0x3d4fc2ca	0.050722875
182	0xbcd52254	-0.026017345
183	0x3d32b947	0.043633725
184	0x3d29968f	0.04140335
185	0xbc6cc1c8	-0.014450498
186	0xbd0e7755	-0.034781773
187	0x3d38a166	0.045075797
188	0x3ba39eda	0.004993302
189	0xbbf2cd56	-0.007409732
190	0x3d69572b	0.056967895
191	0xbd0805a9	-0.033208523
192	0xbc633e6e	-0.013869865
193	0xbb8fbf10	-0.00438679
194	0xbd79592f	-0.060876068
195	0x3d6f8fad	0.05848663
196	0xbce71667	-0.028208924
197	0x3d8e220c	0.06940088
198	0x3cbb8418	0.022890136
199	0xbc694d28	-0.014239587
200	0x3c8f595c	0.017498665
201	0xbd045f36	-0.032317363
202	0xbd26a33b	-0.040683012
203	0xbd2bc383	-0.0419345
204	0x3b5a1b12	0.0033280295
205	0x3d4cc90d	0.049996424
206	0xbc40dfcd	-0.011772108
207	0x3d5c43a1	0.053775433
208	0xbd94d424	-0.07267025
209	0x3d0cf499	0.034412954
210	0x3bac9c5e	0.005267664
211	0x381e6c64	3.7771082e-05
212	0xbd4b91d4	-0.04969962
213	0xbb39efb8	-0.0028371643
214	0x3d55cbcb	0.052196305
215	0x3d107c4a	0.03527478
216	0x3c7b16bc	0.0153252445
217	0x3d2a3329	0.041552696
218	0xbd18851d	-0.03723632
219	0x3d2a8362	0.041629203
220	0xbb79a01f	-0.0038089824
221	0x3d6466aa	0.05576197
222	0x3d2226fd	0.039587963
223	0x3d4fb4a9	0.0507094
224	0xbc723422	-0.014782937
225	0x3d35087b	0.04419754
226	0x3d0679d0	0.032831013
227	0x3cc23097	0.02370481
228	0x3b174a84	0.0023085186
229	0x3c41be9e	0.011825232
230	0x3d1d101f	0.038345452
231	0xbd4230a0	-0.047409654
232	0xbd1551d9	-0.03645501
233	0x3c5e2a28	0.0135598555
234	0x3d1e8b3a	0.038706996
235	0x3d38ca30	0.045114696
236	0x3d8051e2	0.06265618
237	0x3d7c915e	0.06166207
238	0x3d2851db	0.04109369
239	0x3d7a8726	0.061164044
240	0x3d886953	0.06660714
241	0x3d89990c	0.067186445
242	0x3d2ba9e5	0.04191007
243	0xbcbb5325	-0.022866795
244	0x3d21a966	0.03946819
245	0xbd2ee4d9	-0.042698715
246	0xbb856969	-0.0040714038
247	0xbc67dbce	-0.014151527
248	0x3d85aee3	0.065274976
249	0xbd227249	-0.039659772
250	0x3d89b8ad	0.06724677
251	0x3d63da21	0.055627946
252	0x3d8ff4d6	0.070291206
253	0x3bd7d826	0.006587046
254	0x3d200854	0.039070442
255	0xbcdb3d50	-0.026762635

action_model._discrete_distribution.branches.0.bias f4 [2]
0	0x3b789692	0.0037931544
1	0xbb789208	-0.0037928838

exp_avg f4 [128, 15]
0	0x36832ec4	3.9095485e-06
1	0x36b3a724	5.3540734e-06
2	0x34ae91f0	3.251621e-07
3	0x369254ab	4.3609957e-06
4	0x371c260a	9.307181e-06
5	0x3705efe8	7.983275e-06
6	0x34b3b979	3.3476297e-07
7	0x368d9fbf	4.2207243e-06
8	0x362092a2	2.392721e-06
9	0x37071b53	8.052989e-06
10	0xb59d71a1	-1.1730482e-06
11	0x368666ef	4.0054942e-06
12	0x371d2e8c	9.368767e-06
13	0x3705b5de	7.969762e-06
14	0x36d09826	6.2165955e-06
15	0xb33762dc	-4.269792e-08
16	0x351a50df	5.7487154e-07
17	0x35094a00	5.114416e-07
18	0x34ad0320	3.2226035e-07
19	0x358bdaab	1.0419948e-06
20	0x358b88a8	1.0396079e-06
21	0x350baa2f	5.2029185e-07
22	0x34badc86	3.4805652e-07
23	0x35ad9d4f	1.2935287e-06
24	0x358f2eb3	1.0667922e-06
25	0xb54db315	-7.662905e-07
26	0xb4172de7	-1.407967e-07
27	0x358f01fb	1.0654907e-06
28	0x358c9e09	1.0476807e-06
29	0x35389c06	6.8772385e-07
30	0xb54b4438	-7.5722664e-07
31	0xb66e9564	-3.555172e-06
32	0xb5bde23a	-1.4147438e-06
33	0xb690cfa0	-4.315705e-06
34	0xb6bf1eb2	-5.695817e-06
35	0xb6b753e7	-5.4635925e-06
36	0xb5c2e72b	-1.4521405e-06
37	0xb68ccb1b	-4.1959697e-06
38	0xb667b73f	-3.4528346e-06
39	0xb6c264c6	-5.793382e-06
40	0xb5151568	-5.5537976e-07
41	0xb68a8479	-4.1281423e-06
42	0xb6c3c0a8	-5.833881e-06
43	0xb6b8a447	-5.5027517e-06
44	0xb6b94915	-5.5219375e-06
45	0xb72b46d2	-1.0208883e-05
46	0xb75b3d0d	-1.3067632e-05
47	0xb60d8c9e	-2.1092487e-06
48	0xb7319b37	-1.0586161e-05
49	0xb7b333f6	-2.1362659e-05
50	0xb79c1c9f	-1.8609977e-05
51	0xb60fb103	-2.1411695e-06
52	0xb72ff18c	-1.0487052e-05
53	0xb68d7ed9	-4.2168945e-06
54	0xb798c1f6	-1.8210132e-05
55	0x35cc2446	1.5209741e-06
56	0xb7241d4d	-9.781984e-06
57	0xb7b3dd9c	-2.1441658e-05
58	0xb79bbcf0	-1.856542e-05
59	0xb7762f9f	-1.467383e-05
60	0x37994762	1.8272262e-05
61	0x37ebe870	2.812242e-05
62	0x372bff1a	1.025179e-05
63	0x37da1f3a	2.6002166e-05
64	0x3844da55	4.693338e-05
65	0x38305a73	4.2045907e-05
66	0x372f39e7	1.0444294e-05
67	0x37da302f	2.6010062e-05
68	0x377702ca	1.4722997e-05
69	0x382fd6e8	4.19234e-05
70	0xb65d7fda	-3.3005986e-06
71	0x37b9bc57	2.2141421e-05
72	0x38469a4a	4.735057e-05
73	0x383069ed	4.206032e-05
74	0x380afc26	3.3136595e-05
75	0xb5d2c4fc	-1.5703549e-06
76	0xb60251b8	-1.9419076e-06
77	0xb4583cd7	-2.0138701e-07
78	0xb5db06b7	-1.6318726e-06
79	0xb6433e54	-2.9093544e-06
80	0xb6298757	-2.526174e-06
81	0xb4622116	-2.1059927e-07
82	0xb5e2928b	-1.6880962e-06
83	0xb4b59536	-3.3822442e-07
84	0xb6287ed9	-2.5107786e-06
85	0x349e1d9c	2.9451337e-07
86	0xb5d492cb	-1.5837953e-06
87	0xb642edae	-2.90466e-06
88	0xb628cb3e	-2.5152253e-06
89	0xb612ac04	-2.1855822e-06
90	0xb73ee8e2	-1.1379105e-05
91	0xb784fcda	-1.585337e-05
92	0xb68c6edd	-4.1852313e-06
93	0xb76fa22e	-1.42832705e-05
94	0xb7efcdd4	-2.8586866e-05
95	0xb7cdef9a	-2.4549478e-05
96	0xb68de42b	-4.2286897e-06
97	0xb76b47aa	-1.4023777e-05
98	0xb6d76f99	-6.420491e-06
99	0xb7c8cf81	-2.3938484e-05
100	0x3598800e	1.1362151e-06
101	0xb757fa0f	-1.287322e-05
102	0xb7f07266	-2.86635e-05
103	0xb7cd48a6	-2.4471734e-05
104	0xb79e5b29	-1.8877518e-05
105	0x354be8ca	7.5962146e-07
106	0xb52fc7d3	-6.548336e-07
107	0xb4985e1f	-2.8380688e-07
108	0xb59e1a29	-1.1779531e-06
109	0xb64c6adc	-3.046057e-06
110	0xb61b8528	-2.3174307e-06
111	0xb4a1cab7	-3.013608e-07
112	0xb5aaf3e4	-1.2736969e-06
113	0xb6071a94	-2.0132038e-06
114	0xb62263ed	-2.4198046e-06
115	0x35b96b8a	1.3814872e-06
116	0xb53a49a1	-6.9397544e-07
117	0xb6510252	-3.1144777e-06
118	0xb61beb25	-2.3233672e-06
119	0xb5236d8f	-6.088166e-07
120	0x35ccf04d	1.5269121e-06
121	0x36a08ad7	4.7845347e-06
122	0x36638022	3.390022e-06
123	0x36f5edd4	7.329256e-06
124	0x377862f0	1.4804988e-05
125	0x373dba6c	1.1308683e-05
126	0x3666ef94	3.4412124e-06
127	0x36f992a8	7.4378513e-06
128	0x369bd4fd	4.644155e-06
129	0x374a1095	1.2043999e-05
130	0xb623f2e3	-2.4430271e-06
131	0x36b9d7c1	5.5385467e-06
132	0x377b4cf7	1.4978686e-05
133	0x373d378a	1.1278209e-05
134	0x36bf8466	5.707657e-06
135	0xb7bd5d90	-2.2574124e-05
136	0xb7f129c5	-2.874889e-05
137	0xb6a8f467	-5.0352423e-06
138	0xb7c174ce	-2.3061784e-05
139	0xb84b0834	-4.840661e-05
140	0xb82df905	-4.147833e-05
141	0xb6ab7ab6	-5.1104826e-06
142	0xb7c0a6e5	-2.29659e-05
143	0xb718c3c9	-9.105491e-06
144	0xb8299809	-4.0434334e-05
145	0x368ff972	4.2907714e-06
146	0xb7aec763	-2.0835263e-05
147	0xb84b5d5b	-4.8485916e-05
148	0xb82d58f4	-4.132926e-05
149	0xb8051075	-3.1724998e-05
150	0xb7f19c43	-2.8802204e-05
151	0xb8285018	-4.0128914e-05
152	0xb6c84d64	-5.969474e-06
153	0xb805a52e	-3.1863507e-05
154	0xb8826eed	-6.2195446e-05
155	0xb86b1e89	-5.6056804e-05
156	0xb6cd7686	-6.123274e-06
157	0xb802a35d	-3.114656e-05
158	0xb7949534	-1.7712453e-05
159	0xb8682cde	-5.5354896e-05
160	0x36913b16	4.3282153e-06
161	0xb7f6f349	-2.9438774e-05
162	0xb8830cef	-6.248976e-05
163	0xb86adcaf	-5.5995475e-05
164	0xb8480fe2	-4.7698508e-05
165	0xb4869be1	-2.5072862e-07
166	0x36552dd6	3.1766153e-06
167	0x3626627d	2.4793255e-06
168	0x369d2134	4.68283e-06
169	0x3707291a	8.056197e-06
170	0x36e267da	6.747415e-06
171	0x36277aff	2.4956532e-06
172	0x369e52bf	4.7184e-06
173	0x369853ca	4.5397073e-06
174	0x36eea542	7.1121913e-06
175	0xb5bb8ab5	-1.3972955e-06
176	0x36672ae1	3.4446641e-06
177	0x370a2438	8.233874e-06
178	0x36e34708	6.7733963e-06
179	0x36a03a01	4.775124e-06
180	0xb6112625	-2.1628887e-06
181	0xb633c081	-2.678513e-06
182	0x34244617	1.5299189e-07
183	0xb6212a86	-2.4015621e-06
184	0xb6bc0fba	-5.6046674e-06
185	0xb697411c	-4.5077304e-06
186	0x3425935b	1.542043e-07
187	0xb61cb0d0	-2.334873e-06
188	0xb510c376	-5.3928613e-07
189	0xb68f6f09	-4.2746583e-06
190	0xb4bcafd9	-3.5145675e-07
191	0xb63687c1	-2.7199133e-06
192	0xb6bbd816	-5.59819e-06
193	0xb6963e14	-4.477575e-06
194	0xb6603a2e	-3.3412466e-06
195	0xb4b3da0d	-3.35e-07
196	0xb60f41f1	-2.1347043e-06
197	0x34155d09	1.3910552e-07
198	0xb60e5a12	-2.1212077e-06
199	0xb6d099e0	-6.2167965e-06
200	0xb69f9803	-4.7562658e-06
201	0x341d298f	1.4636883e-07
202	0xb60d68a7	-2.1071553e-06
203	0xb632c175	-2.6636674e-06
204	0xb6a280c6	-4.8429674e-06
205	0x361f78e8	2.3763223e-06
206	0xb5c37758	-1.4563366e-06
207	0xb6d4e429	-6.3446537e-06
208	0xb69fd3d5	-4.7632298e-06
209	0xb5f80735	-1.8479537e-06
210	0xb5cdb970	-1.532766e-06
211	0xb5ae08c7	-1.2966565e-06
212	0xb558c4d0	-8.075267e-07
213	0xb5dcb6e9	-1.6444511e-06
214	0xb645c59a	-2.9470307e-06
215	0xb612f389	-2.1897451e-06
216	0xb5589198	-8.067814e-07
217	0xb5e02efc	-1.6702975e-06
218	0x355b31f7	8.1656566e-07
219	0xb60485b1	-1.9747351e-06
220	0xb52f7813	-6.536731e-07
221	0xb5debdab	-1.659549e-06
222	0xb642062e	-2.891185e-06
223	0xb61065e9	-2.1516992e-06
224	0xb5ca1d53	-1.5058707e-06
225	0x370b31aa	8.296609e-06
226	0x373c9d70	1.12423295e-05
227	0x35534f1a	7.8718733e-07
228	0x371f4064	9.492131e-06
229	0x37a4634e	1.9596566e-05
230	0x378d514d	1.6846368e-05
231	0x35576637	8.0242484e-07
232	0x3718c7bb	9.106409e-06
233	0x36946f1e	4.4236795e-06
234	0x378c29df	1.6708798e-05
235	0xb5b4e536	-1.3477754e-06
236	0x371841c6	9.07522e-06
237	0x37a54120	1.9699859e-05
238	0x378d04ee	1.6810805e-05
239	0x375c87ab	1.31446095e-05
240	0xb4afcf64	-3.2747187e-07
241	0x35edd8d5	1.7720982e-06
242	0x35ef5df9	1.7834237e-06
243	0x360b0011	2.0712653e-06
244	0x367d0324	3.7701766e-06
245	0x3671e6db	3.6046174e-06
246	0x35f3c684	1.8162687e-06
247	0x360e94a3	2.1246167e-06
248	0x36701312	3.5773887e-06
249	0x36804065	3.822194e-06
250	0xb58fdfe9	-1.0719497e-06
251	0x35913e46	1.0821466e-06
252	0x3683d7de	3.9292345e-06
253	0x367518db	3.6522313e-06
254	0x362a4a2b	2.5375145e-06
255	0x3794f2bb	1.7756005e-05
